{
  "nodes": [
    {
      "op": "null", 
      "name": "data", 
      "inputs": []
    }, 
    {
      "op": "null", 
      "name": "_defaultpreprocess49_init_mean", 
      "attrs": {
        "__dtype__": "0", 
        "__init__": "Constant__defaultpreprocess49_init_mean_140013596489264", 
        "__lr_mult__": "1.0", 
        "__shape__": "(1, 1, 1, 3)", 
        "__storage_type__": "0", 
        "__wd_mult__": "1.0"
      }, 
      "inputs": []
    }, 
    {
      "op": "broadcast_sub", 
      "name": "_defaultpreprocess49_broadcast_minus0", 
      "inputs": [[0, 0, 0], [1, 0, 0]]
    }, 
    {
      "op": "null", 
      "name": "_defaultpreprocess49_init_scale", 
      "attrs": {
        "__dtype__": "0", 
        "__init__": "Constant__defaultpreprocess49_init_scale_140013596489096", 
        "__lr_mult__": "1.0", 
        "__shape__": "(1, 1, 1, 3)", 
        "__storage_type__": "0", 
        "__wd_mult__": "1.0"
      }, 
      "inputs": []
    }, 
    {
      "op": "broadcast_div", 
      "name": "_defaultpreprocess49_broadcast_div0", 
      "inputs": [[2, 0, 0], [3, 0, 0]]
    }, 
    {
      "op": "transpose", 
      "name": "_defaultpreprocess49_transpose0", 
      "attrs": {"axes": "(0, 3, 1, 2)"}, 
      "inputs": [[4, 0, 0]]
    }, 
    {
      "op": "null", 
      "name": "resnetv1b_conv0_weight", 
      "attrs": {
        "__dtype__": "0", 
        "__lr_mult__": "1.0", 
        "__shape__": "(64, 3, 7, 7)", 
        "__storage_type__": "0", 
        "__wd_mult__": "1.0"
      }, 
      "inputs": []
    }, 
    {
      "op": "Convolution", 
      "name": "resnetv1b_conv0_fwd", 
      "attrs": {
        "dilate": "(1, 1)", 
        "kernel": "(7, 7)", 
        "layout": "NCHW", 
        "no_bias": "True", 
        "num_filter": "64", 
        "num_group": "1", 
        "pad": "(3, 3)", 
        "stride": "(2, 2)"
      }, 
      "inputs": [[5, 0, 0], [6, 0, 0]]
    }, 
    {
      "op": "null", 
      "name": "resnetv1b_batchnorm0_gamma", 
      "attrs": {
        "__dtype__": "0", 
        "__init__": "ones", 
        "__lr_mult__": "1.0", 
        "__shape__": "(64,)", 
        "__storage_type__": "0", 
        "__wd_mult__": "1.0"
      }, 
      "inputs": []
    }, 
    {
      "op": "null", 
      "name": "resnetv1b_batchnorm0_beta", 
      "attrs": {
        "__dtype__": "0", 
        "__init__": "zeros", 
        "__lr_mult__": "1.0", 
        "__shape__": "(64,)", 
        "__storage_type__": "0", 
        "__wd_mult__": "1.0"
      }, 
      "inputs": []
    }, 
    {
      "op": "null", 
      "name": "resnetv1b_batchnorm0_running_mean", 
      "attrs": {
        "__dtype__": "0", 
        "__init__": "zeros", 
        "__lr_mult__": "1.0", 
        "__shape__": "(64,)", 
        "__storage_type__": "0", 
        "__wd_mult__": "1.0"
      }, 
      "inputs": []
    }, 
    {
      "op": "null", 
      "name": "resnetv1b_batchnorm0_running_var", 
      "attrs": {
        "__dtype__": "0", 
        "__init__": "ones", 
        "__lr_mult__": "1.0", 
        "__shape__": "(64,)", 
        "__storage_type__": "0", 
        "__wd_mult__": "1.0"
      }, 
      "inputs": []
    }, 
    {
      "op": "BatchNorm", 
      "name": "resnetv1b_batchnorm0_fwd", 
      "attrs": {
        "axis": "1", 
        "eps": "1e-05", 
        "fix_gamma": "False", 
        "momentum": "0.9", 
        "use_global_stats": "True"
      }, 
      "inputs": [[7, 0, 0], [8, 0, 0], [9, 0, 0], [10, 0, 2], [11, 0, 2]]
    }, 
    {
      "op": "Activation", 
      "name": "resnetv1b_relu0_fwd", 
      "attrs": {"act_type": "relu"}, 
      "inputs": [[12, 0, 0]]
    }, 
    {
      "op": "Pooling", 
      "name": "resnetv1b_pool0_fwd", 
      "attrs": {
        "global_pool": "False", 
        "kernel": "(3, 3)", 
        "layout": "NCHW", 
        "pad": "(1, 1)", 
        "pool_type": "max", 
        "pooling_convention": "valid", 
        "stride": "(2, 2)"
      }, 
      "inputs": [[13, 0, 0]]
    }, 
    {
      "op": "null", 
      "name": "resnetv1b_layers1_conv0_weight", 
      "attrs": {
        "__dtype__": "0", 
        "__lr_mult__": "1.0", 
        "__shape__": "(64, 64, 1, 1)", 
        "__storage_type__": "0", 
        "__wd_mult__": "1.0"
      }, 
      "inputs": []
    }, 
    {
      "op": "Convolution", 
      "name": "resnetv1b_layers1_conv0_fwd", 
      "attrs": {
        "dilate": "(1, 1)", 
        "kernel": "(1, 1)", 
        "layout": "NCHW", 
        "no_bias": "True", 
        "num_filter": "64", 
        "num_group": "1", 
        "pad": "(0, 0)", 
        "stride": "(1, 1)"
      }, 
      "inputs": [[14, 0, 0], [15, 0, 0]]
    }, 
    {
      "op": "null", 
      "name": "resnetv1b_layers1_batchnorm0_gamma", 
      "attrs": {
        "__dtype__": "0", 
        "__init__": "ones", 
        "__lr_mult__": "1.0", 
        "__shape__": "(64,)", 
        "__storage_type__": "0", 
        "__wd_mult__": "1.0"
      }, 
      "inputs": []
    }, 
    {
      "op": "null", 
      "name": "resnetv1b_layers1_batchnorm0_beta", 
      "attrs": {
        "__dtype__": "0", 
        "__init__": "zeros", 
        "__lr_mult__": "1.0", 
        "__shape__": "(64,)", 
        "__storage_type__": "0", 
        "__wd_mult__": "1.0"
      }, 
      "inputs": []
    }, 
    {
      "op": "null", 
      "name": "resnetv1b_layers1_batchnorm0_running_mean", 
      "attrs": {
        "__dtype__": "0", 
        "__init__": "zeros", 
        "__lr_mult__": "1.0", 
        "__shape__": "(64,)", 
        "__storage_type__": "0", 
        "__wd_mult__": "1.0"
      }, 
      "inputs": []
    }, 
    {
      "op": "null", 
      "name": "resnetv1b_layers1_batchnorm0_running_var", 
      "attrs": {
        "__dtype__": "0", 
        "__init__": "ones", 
        "__lr_mult__": "1.0", 
        "__shape__": "(64,)", 
        "__storage_type__": "0", 
        "__wd_mult__": "1.0"
      }, 
      "inputs": []
    }, 
    {
      "op": "BatchNorm", 
      "name": "resnetv1b_layers1_batchnorm0_fwd", 
      "attrs": {
        "axis": "1", 
        "eps": "1e-05", 
        "fix_gamma": "False", 
        "momentum": "0.9", 
        "use_global_stats": "True"
      }, 
      "inputs": [[16, 0, 0], [17, 0, 0], [18, 0, 0], [19, 0, 2], [20, 0, 2]]
    }, 
    {
      "op": "Activation", 
      "name": "resnetv1b_layers1_relu0_fwd", 
      "attrs": {"act_type": "relu"}, 
      "inputs": [[21, 0, 0]]
    }, 
    {
      "op": "null", 
      "name": "resnetv1b_layers1_conv1_weight", 
      "attrs": {
        "__dtype__": "0", 
        "__lr_mult__": "1.0", 
        "__shape__": "(64, 64, 3, 3)", 
        "__storage_type__": "0", 
        "__wd_mult__": "1.0"
      }, 
      "inputs": []
    }, 
    {
      "op": "Convolution", 
      "name": "resnetv1b_layers1_conv1_fwd", 
      "attrs": {
        "dilate": "(1, 1)", 
        "kernel": "(3, 3)", 
        "layout": "NCHW", 
        "no_bias": "True", 
        "num_filter": "64", 
        "num_group": "1", 
        "pad": "(1, 1)", 
        "stride": "(1, 1)"
      }, 
      "inputs": [[22, 0, 0], [23, 0, 0]]
    }, 
    {
      "op": "null", 
      "name": "resnetv1b_layers1_batchnorm1_gamma", 
      "attrs": {
        "__dtype__": "0", 
        "__init__": "ones", 
        "__lr_mult__": "1.0", 
        "__shape__": "(64,)", 
        "__storage_type__": "0", 
        "__wd_mult__": "1.0"
      }, 
      "inputs": []
    }, 
    {
      "op": "null", 
      "name": "resnetv1b_layers1_batchnorm1_beta", 
      "attrs": {
        "__dtype__": "0", 
        "__init__": "zeros", 
        "__lr_mult__": "1.0", 
        "__shape__": "(64,)", 
        "__storage_type__": "0", 
        "__wd_mult__": "1.0"
      }, 
      "inputs": []
    }, 
    {
      "op": "null", 
      "name": "resnetv1b_layers1_batchnorm1_running_mean", 
      "attrs": {
        "__dtype__": "0", 
        "__init__": "zeros", 
        "__lr_mult__": "1.0", 
        "__shape__": "(64,)", 
        "__storage_type__": "0", 
        "__wd_mult__": "1.0"
      }, 
      "inputs": []
    }, 
    {
      "op": "null", 
      "name": "resnetv1b_layers1_batchnorm1_running_var", 
      "attrs": {
        "__dtype__": "0", 
        "__init__": "ones", 
        "__lr_mult__": "1.0", 
        "__shape__": "(64,)", 
        "__storage_type__": "0", 
        "__wd_mult__": "1.0"
      }, 
      "inputs": []
    }, 
    {
      "op": "BatchNorm", 
      "name": "resnetv1b_layers1_batchnorm1_fwd", 
      "attrs": {
        "axis": "1", 
        "eps": "1e-05", 
        "fix_gamma": "False", 
        "momentum": "0.9", 
        "use_global_stats": "True"
      }, 
      "inputs": [[24, 0, 0], [25, 0, 0], [26, 0, 0], [27, 0, 2], [28, 0, 2]]
    }, 
    {
      "op": "Activation", 
      "name": "resnetv1b_layers1_relu1_fwd", 
      "attrs": {"act_type": "relu"}, 
      "inputs": [[29, 0, 0]]
    }, 
    {
      "op": "null", 
      "name": "resnetv1b_layers1_conv2_weight", 
      "attrs": {
        "__dtype__": "0", 
        "__lr_mult__": "1.0", 
        "__shape__": "(256, 64, 1, 1)", 
        "__storage_type__": "0", 
        "__wd_mult__": "1.0"
      }, 
      "inputs": []
    }, 
    {
      "op": "Convolution", 
      "name": "resnetv1b_layers1_conv2_fwd", 
      "attrs": {
        "dilate": "(1, 1)", 
        "kernel": "(1, 1)", 
        "layout": "NCHW", 
        "no_bias": "True", 
        "num_filter": "256", 
        "num_group": "1", 
        "pad": "(0, 0)", 
        "stride": "(1, 1)"
      }, 
      "inputs": [[30, 0, 0], [31, 0, 0]]
    }, 
    {
      "op": "null", 
      "name": "resnetv1b_layers1_batchnorm2_gamma", 
      "attrs": {
        "__dtype__": "0", 
        "__init__": "ones", 
        "__lr_mult__": "1.0", 
        "__shape__": "(256,)", 
        "__storage_type__": "0", 
        "__wd_mult__": "1.0"
      }, 
      "inputs": []
    }, 
    {
      "op": "null", 
      "name": "resnetv1b_layers1_batchnorm2_beta", 
      "attrs": {
        "__dtype__": "0", 
        "__init__": "zeros", 
        "__lr_mult__": "1.0", 
        "__shape__": "(256,)", 
        "__storage_type__": "0", 
        "__wd_mult__": "1.0"
      }, 
      "inputs": []
    }, 
    {
      "op": "null", 
      "name": "resnetv1b_layers1_batchnorm2_running_mean", 
      "attrs": {
        "__dtype__": "0", 
        "__init__": "zeros", 
        "__lr_mult__": "1.0", 
        "__shape__": "(256,)", 
        "__storage_type__": "0", 
        "__wd_mult__": "1.0"
      }, 
      "inputs": []
    }, 
    {
      "op": "null", 
      "name": "resnetv1b_layers1_batchnorm2_running_var", 
      "attrs": {
        "__dtype__": "0", 
        "__init__": "ones", 
        "__lr_mult__": "1.0", 
        "__shape__": "(256,)", 
        "__storage_type__": "0", 
        "__wd_mult__": "1.0"
      }, 
      "inputs": []
    }, 
    {
      "op": "BatchNorm", 
      "name": "resnetv1b_layers1_batchnorm2_fwd", 
      "attrs": {
        "axis": "1", 
        "eps": "1e-05", 
        "fix_gamma": "False", 
        "momentum": "0.9", 
        "use_global_stats": "True"
      }, 
      "inputs": [[32, 0, 0], [33, 0, 0], [34, 0, 0], [35, 0, 2], [36, 0, 2]]
    }, 
    {
      "op": "null", 
      "name": "resnetv1b_down1_conv0_weight", 
      "attrs": {
        "__dtype__": "0", 
        "__lr_mult__": "1.0", 
        "__shape__": "(256, 64, 1, 1)", 
        "__storage_type__": "0", 
        "__wd_mult__": "1.0"
      }, 
      "inputs": []
    }, 
    {
      "op": "Convolution", 
      "name": "resnetv1b_down1_conv0_fwd", 
      "attrs": {
        "dilate": "(1, 1)", 
        "kernel": "(1, 1)", 
        "layout": "NCHW", 
        "no_bias": "True", 
        "num_filter": "256", 
        "num_group": "1", 
        "pad": "(0, 0)", 
        "stride": "(1, 1)"
      }, 
      "inputs": [[14, 0, 0], [38, 0, 0]]
    }, 
    {
      "op": "null", 
      "name": "resnetv1b_down1_batchnorm0_gamma", 
      "attrs": {
        "__dtype__": "0", 
        "__init__": "ones", 
        "__lr_mult__": "1.0", 
        "__shape__": "(256,)", 
        "__storage_type__": "0", 
        "__wd_mult__": "1.0"
      }, 
      "inputs": []
    }, 
    {
      "op": "null", 
      "name": "resnetv1b_down1_batchnorm0_beta", 
      "attrs": {
        "__dtype__": "0", 
        "__init__": "zeros", 
        "__lr_mult__": "1.0", 
        "__shape__": "(256,)", 
        "__storage_type__": "0", 
        "__wd_mult__": "1.0"
      }, 
      "inputs": []
    }, 
    {
      "op": "null", 
      "name": "resnetv1b_down1_batchnorm0_running_mean", 
      "attrs": {
        "__dtype__": "0", 
        "__init__": "zeros", 
        "__lr_mult__": "1.0", 
        "__shape__": "(256,)", 
        "__storage_type__": "0", 
        "__wd_mult__": "1.0"
      }, 
      "inputs": []
    }, 
    {
      "op": "null", 
      "name": "resnetv1b_down1_batchnorm0_running_var", 
      "attrs": {
        "__dtype__": "0", 
        "__init__": "ones", 
        "__lr_mult__": "1.0", 
        "__shape__": "(256,)", 
        "__storage_type__": "0", 
        "__wd_mult__": "1.0"
      }, 
      "inputs": []
    }, 
    {
      "op": "BatchNorm", 
      "name": "resnetv1b_down1_batchnorm0_fwd", 
      "attrs": {
        "axis": "1", 
        "eps": "1e-05", 
        "fix_gamma": "False", 
        "momentum": "0.9", 
        "use_global_stats": "True"
      }, 
      "inputs": [[39, 0, 0], [40, 0, 0], [41, 0, 0], [42, 0, 2], [43, 0, 2]]
    }, 
    {
      "op": "elemwise_add", 
      "name": "resnetv1b_layers1_bottleneckv1b0__plus0", 
      "inputs": [[37, 0, 0], [44, 0, 0]]
    }, 
    {
      "op": "Activation", 
      "name": "resnetv1b_layers1_relu2_fwd", 
      "attrs": {"act_type": "relu"}, 
      "inputs": [[45, 0, 0]]
    }, 
    {
      "op": "null", 
      "name": "resnetv1b_layers1_conv3_weight", 
      "attrs": {
        "__dtype__": "0", 
        "__lr_mult__": "1.0", 
        "__shape__": "(64, 256, 1, 1)", 
        "__storage_type__": "0", 
        "__wd_mult__": "1.0"
      }, 
      "inputs": []
    }, 
    {
      "op": "Convolution", 
      "name": "resnetv1b_layers1_conv3_fwd", 
      "attrs": {
        "dilate": "(1, 1)", 
        "kernel": "(1, 1)", 
        "layout": "NCHW", 
        "no_bias": "True", 
        "num_filter": "64", 
        "num_group": "1", 
        "pad": "(0, 0)", 
        "stride": "(1, 1)"
      }, 
      "inputs": [[46, 0, 0], [47, 0, 0]]
    }, 
    {
      "op": "null", 
      "name": "resnetv1b_layers1_batchnorm3_gamma", 
      "attrs": {
        "__dtype__": "0", 
        "__init__": "ones", 
        "__lr_mult__": "1.0", 
        "__shape__": "(64,)", 
        "__storage_type__": "0", 
        "__wd_mult__": "1.0"
      }, 
      "inputs": []
    }, 
    {
      "op": "null", 
      "name": "resnetv1b_layers1_batchnorm3_beta", 
      "attrs": {
        "__dtype__": "0", 
        "__init__": "zeros", 
        "__lr_mult__": "1.0", 
        "__shape__": "(64,)", 
        "__storage_type__": "0", 
        "__wd_mult__": "1.0"
      }, 
      "inputs": []
    }, 
    {
      "op": "null", 
      "name": "resnetv1b_layers1_batchnorm3_running_mean", 
      "attrs": {
        "__dtype__": "0", 
        "__init__": "zeros", 
        "__lr_mult__": "1.0", 
        "__shape__": "(64,)", 
        "__storage_type__": "0", 
        "__wd_mult__": "1.0"
      }, 
      "inputs": []
    }, 
    {
      "op": "null", 
      "name": "resnetv1b_layers1_batchnorm3_running_var", 
      "attrs": {
        "__dtype__": "0", 
        "__init__": "ones", 
        "__lr_mult__": "1.0", 
        "__shape__": "(64,)", 
        "__storage_type__": "0", 
        "__wd_mult__": "1.0"
      }, 
      "inputs": []
    }, 
    {
      "op": "BatchNorm", 
      "name": "resnetv1b_layers1_batchnorm3_fwd", 
      "attrs": {
        "axis": "1", 
        "eps": "1e-05", 
        "fix_gamma": "False", 
        "momentum": "0.9", 
        "use_global_stats": "True"
      }, 
      "inputs": [[48, 0, 0], [49, 0, 0], [50, 0, 0], [51, 0, 2], [52, 0, 2]]
    }, 
    {
      "op": "Activation", 
      "name": "resnetv1b_layers1_relu3_fwd", 
      "attrs": {"act_type": "relu"}, 
      "inputs": [[53, 0, 0]]
    }, 
    {
      "op": "null", 
      "name": "resnetv1b_layers1_conv4_weight", 
      "attrs": {
        "__dtype__": "0", 
        "__lr_mult__": "1.0", 
        "__shape__": "(64, 64, 3, 3)", 
        "__storage_type__": "0", 
        "__wd_mult__": "1.0"
      }, 
      "inputs": []
    }, 
    {
      "op": "Convolution", 
      "name": "resnetv1b_layers1_conv4_fwd", 
      "attrs": {
        "dilate": "(1, 1)", 
        "kernel": "(3, 3)", 
        "layout": "NCHW", 
        "no_bias": "True", 
        "num_filter": "64", 
        "num_group": "1", 
        "pad": "(1, 1)", 
        "stride": "(1, 1)"
      }, 
      "inputs": [[54, 0, 0], [55, 0, 0]]
    }, 
    {
      "op": "null", 
      "name": "resnetv1b_layers1_batchnorm4_gamma", 
      "attrs": {
        "__dtype__": "0", 
        "__init__": "ones", 
        "__lr_mult__": "1.0", 
        "__shape__": "(64,)", 
        "__storage_type__": "0", 
        "__wd_mult__": "1.0"
      }, 
      "inputs": []
    }, 
    {
      "op": "null", 
      "name": "resnetv1b_layers1_batchnorm4_beta", 
      "attrs": {
        "__dtype__": "0", 
        "__init__": "zeros", 
        "__lr_mult__": "1.0", 
        "__shape__": "(64,)", 
        "__storage_type__": "0", 
        "__wd_mult__": "1.0"
      }, 
      "inputs": []
    }, 
    {
      "op": "null", 
      "name": "resnetv1b_layers1_batchnorm4_running_mean", 
      "attrs": {
        "__dtype__": "0", 
        "__init__": "zeros", 
        "__lr_mult__": "1.0", 
        "__shape__": "(64,)", 
        "__storage_type__": "0", 
        "__wd_mult__": "1.0"
      }, 
      "inputs": []
    }, 
    {
      "op": "null", 
      "name": "resnetv1b_layers1_batchnorm4_running_var", 
      "attrs": {
        "__dtype__": "0", 
        "__init__": "ones", 
        "__lr_mult__": "1.0", 
        "__shape__": "(64,)", 
        "__storage_type__": "0", 
        "__wd_mult__": "1.0"
      }, 
      "inputs": []
    }, 
    {
      "op": "BatchNorm", 
      "name": "resnetv1b_layers1_batchnorm4_fwd", 
      "attrs": {
        "axis": "1", 
        "eps": "1e-05", 
        "fix_gamma": "False", 
        "momentum": "0.9", 
        "use_global_stats": "True"
      }, 
      "inputs": [[56, 0, 0], [57, 0, 0], [58, 0, 0], [59, 0, 2], [60, 0, 2]]
    }, 
    {
      "op": "Activation", 
      "name": "resnetv1b_layers1_relu4_fwd", 
      "attrs": {"act_type": "relu"}, 
      "inputs": [[61, 0, 0]]
    }, 
    {
      "op": "null", 
      "name": "resnetv1b_layers1_conv5_weight", 
      "attrs": {
        "__dtype__": "0", 
        "__lr_mult__": "1.0", 
        "__shape__": "(256, 64, 1, 1)", 
        "__storage_type__": "0", 
        "__wd_mult__": "1.0"
      }, 
      "inputs": []
    }, 
    {
      "op": "Convolution", 
      "name": "resnetv1b_layers1_conv5_fwd", 
      "attrs": {
        "dilate": "(1, 1)", 
        "kernel": "(1, 1)", 
        "layout": "NCHW", 
        "no_bias": "True", 
        "num_filter": "256", 
        "num_group": "1", 
        "pad": "(0, 0)", 
        "stride": "(1, 1)"
      }, 
      "inputs": [[62, 0, 0], [63, 0, 0]]
    }, 
    {
      "op": "null", 
      "name": "resnetv1b_layers1_batchnorm5_gamma", 
      "attrs": {
        "__dtype__": "0", 
        "__init__": "ones", 
        "__lr_mult__": "1.0", 
        "__shape__": "(256,)", 
        "__storage_type__": "0", 
        "__wd_mult__": "1.0"
      }, 
      "inputs": []
    }, 
    {
      "op": "null", 
      "name": "resnetv1b_layers1_batchnorm5_beta", 
      "attrs": {
        "__dtype__": "0", 
        "__init__": "zeros", 
        "__lr_mult__": "1.0", 
        "__shape__": "(256,)", 
        "__storage_type__": "0", 
        "__wd_mult__": "1.0"
      }, 
      "inputs": []
    }, 
    {
      "op": "null", 
      "name": "resnetv1b_layers1_batchnorm5_running_mean", 
      "attrs": {
        "__dtype__": "0", 
        "__init__": "zeros", 
        "__lr_mult__": "1.0", 
        "__shape__": "(256,)", 
        "__storage_type__": "0", 
        "__wd_mult__": "1.0"
      }, 
      "inputs": []
    }, 
    {
      "op": "null", 
      "name": "resnetv1b_layers1_batchnorm5_running_var", 
      "attrs": {
        "__dtype__": "0", 
        "__init__": "ones", 
        "__lr_mult__": "1.0", 
        "__shape__": "(256,)", 
        "__storage_type__": "0", 
        "__wd_mult__": "1.0"
      }, 
      "inputs": []
    }, 
    {
      "op": "BatchNorm", 
      "name": "resnetv1b_layers1_batchnorm5_fwd", 
      "attrs": {
        "axis": "1", 
        "eps": "1e-05", 
        "fix_gamma": "False", 
        "momentum": "0.9", 
        "use_global_stats": "True"
      }, 
      "inputs": [[64, 0, 0], [65, 0, 0], [66, 0, 0], [67, 0, 2], [68, 0, 2]]
    }, 
    {
      "op": "elemwise_add", 
      "name": "resnetv1b_layers1_bottleneckv1b1__plus0", 
      "inputs": [[69, 0, 0], [46, 0, 0]]
    }, 
    {
      "op": "Activation", 
      "name": "resnetv1b_layers1_relu5_fwd", 
      "attrs": {"act_type": "relu"}, 
      "inputs": [[70, 0, 0]]
    }, 
    {
      "op": "null", 
      "name": "resnetv1b_layers1_conv6_weight", 
      "attrs": {
        "__dtype__": "0", 
        "__lr_mult__": "1.0", 
        "__shape__": "(64, 256, 1, 1)", 
        "__storage_type__": "0", 
        "__wd_mult__": "1.0"
      }, 
      "inputs": []
    }, 
    {
      "op": "Convolution", 
      "name": "resnetv1b_layers1_conv6_fwd", 
      "attrs": {
        "dilate": "(1, 1)", 
        "kernel": "(1, 1)", 
        "layout": "NCHW", 
        "no_bias": "True", 
        "num_filter": "64", 
        "num_group": "1", 
        "pad": "(0, 0)", 
        "stride": "(1, 1)"
      }, 
      "inputs": [[71, 0, 0], [72, 0, 0]]
    }, 
    {
      "op": "null", 
      "name": "resnetv1b_layers1_batchnorm6_gamma", 
      "attrs": {
        "__dtype__": "0", 
        "__init__": "ones", 
        "__lr_mult__": "1.0", 
        "__shape__": "(64,)", 
        "__storage_type__": "0", 
        "__wd_mult__": "1.0"
      }, 
      "inputs": []
    }, 
    {
      "op": "null", 
      "name": "resnetv1b_layers1_batchnorm6_beta", 
      "attrs": {
        "__dtype__": "0", 
        "__init__": "zeros", 
        "__lr_mult__": "1.0", 
        "__shape__": "(64,)", 
        "__storage_type__": "0", 
        "__wd_mult__": "1.0"
      }, 
      "inputs": []
    }, 
    {
      "op": "null", 
      "name": "resnetv1b_layers1_batchnorm6_running_mean", 
      "attrs": {
        "__dtype__": "0", 
        "__init__": "zeros", 
        "__lr_mult__": "1.0", 
        "__shape__": "(64,)", 
        "__storage_type__": "0", 
        "__wd_mult__": "1.0"
      }, 
      "inputs": []
    }, 
    {
      "op": "null", 
      "name": "resnetv1b_layers1_batchnorm6_running_var", 
      "attrs": {
        "__dtype__": "0", 
        "__init__": "ones", 
        "__lr_mult__": "1.0", 
        "__shape__": "(64,)", 
        "__storage_type__": "0", 
        "__wd_mult__": "1.0"
      }, 
      "inputs": []
    }, 
    {
      "op": "BatchNorm", 
      "name": "resnetv1b_layers1_batchnorm6_fwd", 
      "attrs": {
        "axis": "1", 
        "eps": "1e-05", 
        "fix_gamma": "False", 
        "momentum": "0.9", 
        "use_global_stats": "True"
      }, 
      "inputs": [[73, 0, 0], [74, 0, 0], [75, 0, 0], [76, 0, 2], [77, 0, 2]]
    }, 
    {
      "op": "Activation", 
      "name": "resnetv1b_layers1_relu6_fwd", 
      "attrs": {"act_type": "relu"}, 
      "inputs": [[78, 0, 0]]
    }, 
    {
      "op": "null", 
      "name": "resnetv1b_layers1_conv7_weight", 
      "attrs": {
        "__dtype__": "0", 
        "__lr_mult__": "1.0", 
        "__shape__": "(64, 64, 3, 3)", 
        "__storage_type__": "0", 
        "__wd_mult__": "1.0"
      }, 
      "inputs": []
    }, 
    {
      "op": "Convolution", 
      "name": "resnetv1b_layers1_conv7_fwd", 
      "attrs": {
        "dilate": "(1, 1)", 
        "kernel": "(3, 3)", 
        "layout": "NCHW", 
        "no_bias": "True", 
        "num_filter": "64", 
        "num_group": "1", 
        "pad": "(1, 1)", 
        "stride": "(1, 1)"
      }, 
      "inputs": [[79, 0, 0], [80, 0, 0]]
    }, 
    {
      "op": "null", 
      "name": "resnetv1b_layers1_batchnorm7_gamma", 
      "attrs": {
        "__dtype__": "0", 
        "__init__": "ones", 
        "__lr_mult__": "1.0", 
        "__shape__": "(64,)", 
        "__storage_type__": "0", 
        "__wd_mult__": "1.0"
      }, 
      "inputs": []
    }, 
    {
      "op": "null", 
      "name": "resnetv1b_layers1_batchnorm7_beta", 
      "attrs": {
        "__dtype__": "0", 
        "__init__": "zeros", 
        "__lr_mult__": "1.0", 
        "__shape__": "(64,)", 
        "__storage_type__": "0", 
        "__wd_mult__": "1.0"
      }, 
      "inputs": []
    }, 
    {
      "op": "null", 
      "name": "resnetv1b_layers1_batchnorm7_running_mean", 
      "attrs": {
        "__dtype__": "0", 
        "__init__": "zeros", 
        "__lr_mult__": "1.0", 
        "__shape__": "(64,)", 
        "__storage_type__": "0", 
        "__wd_mult__": "1.0"
      }, 
      "inputs": []
    }, 
    {
      "op": "null", 
      "name": "resnetv1b_layers1_batchnorm7_running_var", 
      "attrs": {
        "__dtype__": "0", 
        "__init__": "ones", 
        "__lr_mult__": "1.0", 
        "__shape__": "(64,)", 
        "__storage_type__": "0", 
        "__wd_mult__": "1.0"
      }, 
      "inputs": []
    }, 
    {
      "op": "BatchNorm", 
      "name": "resnetv1b_layers1_batchnorm7_fwd", 
      "attrs": {
        "axis": "1", 
        "eps": "1e-05", 
        "fix_gamma": "False", 
        "momentum": "0.9", 
        "use_global_stats": "True"
      }, 
      "inputs": [[81, 0, 0], [82, 0, 0], [83, 0, 0], [84, 0, 2], [85, 0, 2]]
    }, 
    {
      "op": "Activation", 
      "name": "resnetv1b_layers1_relu7_fwd", 
      "attrs": {"act_type": "relu"}, 
      "inputs": [[86, 0, 0]]
    }, 
    {
      "op": "null", 
      "name": "resnetv1b_layers1_conv8_weight", 
      "attrs": {
        "__dtype__": "0", 
        "__lr_mult__": "1.0", 
        "__shape__": "(256, 64, 1, 1)", 
        "__storage_type__": "0", 
        "__wd_mult__": "1.0"
      }, 
      "inputs": []
    }, 
    {
      "op": "Convolution", 
      "name": "resnetv1b_layers1_conv8_fwd", 
      "attrs": {
        "dilate": "(1, 1)", 
        "kernel": "(1, 1)", 
        "layout": "NCHW", 
        "no_bias": "True", 
        "num_filter": "256", 
        "num_group": "1", 
        "pad": "(0, 0)", 
        "stride": "(1, 1)"
      }, 
      "inputs": [[87, 0, 0], [88, 0, 0]]
    }, 
    {
      "op": "null", 
      "name": "resnetv1b_layers1_batchnorm8_gamma", 
      "attrs": {
        "__dtype__": "0", 
        "__init__": "ones", 
        "__lr_mult__": "1.0", 
        "__shape__": "(256,)", 
        "__storage_type__": "0", 
        "__wd_mult__": "1.0"
      }, 
      "inputs": []
    }, 
    {
      "op": "null", 
      "name": "resnetv1b_layers1_batchnorm8_beta", 
      "attrs": {
        "__dtype__": "0", 
        "__init__": "zeros", 
        "__lr_mult__": "1.0", 
        "__shape__": "(256,)", 
        "__storage_type__": "0", 
        "__wd_mult__": "1.0"
      }, 
      "inputs": []
    }, 
    {
      "op": "null", 
      "name": "resnetv1b_layers1_batchnorm8_running_mean", 
      "attrs": {
        "__dtype__": "0", 
        "__init__": "zeros", 
        "__lr_mult__": "1.0", 
        "__shape__": "(256,)", 
        "__storage_type__": "0", 
        "__wd_mult__": "1.0"
      }, 
      "inputs": []
    }, 
    {
      "op": "null", 
      "name": "resnetv1b_layers1_batchnorm8_running_var", 
      "attrs": {
        "__dtype__": "0", 
        "__init__": "ones", 
        "__lr_mult__": "1.0", 
        "__shape__": "(256,)", 
        "__storage_type__": "0", 
        "__wd_mult__": "1.0"
      }, 
      "inputs": []
    }, 
    {
      "op": "BatchNorm", 
      "name": "resnetv1b_layers1_batchnorm8_fwd", 
      "attrs": {
        "axis": "1", 
        "eps": "1e-05", 
        "fix_gamma": "False", 
        "momentum": "0.9", 
        "use_global_stats": "True"
      }, 
      "inputs": [[89, 0, 0], [90, 0, 0], [91, 0, 0], [92, 0, 2], [93, 0, 2]]
    }, 
    {
      "op": "elemwise_add", 
      "name": "resnetv1b_layers1_bottleneckv1b2__plus0", 
      "inputs": [[94, 0, 0], [71, 0, 0]]
    }, 
    {
      "op": "Activation", 
      "name": "resnetv1b_layers1_relu8_fwd", 
      "attrs": {"act_type": "relu"}, 
      "inputs": [[95, 0, 0]]
    }, 
    {
      "op": "null", 
      "name": "resnetv1b_layers2_conv0_weight", 
      "attrs": {
        "__dtype__": "0", 
        "__lr_mult__": "1.0", 
        "__shape__": "(128, 256, 1, 1)", 
        "__storage_type__": "0", 
        "__wd_mult__": "1.0"
      }, 
      "inputs": []
    }, 
    {
      "op": "Convolution", 
      "name": "resnetv1b_layers2_conv0_fwd", 
      "attrs": {
        "dilate": "(1, 1)", 
        "kernel": "(1, 1)", 
        "layout": "NCHW", 
        "no_bias": "True", 
        "num_filter": "128", 
        "num_group": "1", 
        "pad": "(0, 0)", 
        "stride": "(1, 1)"
      }, 
      "inputs": [[96, 0, 0], [97, 0, 0]]
    }, 
    {
      "op": "null", 
      "name": "resnetv1b_layers2_batchnorm0_gamma", 
      "attrs": {
        "__dtype__": "0", 
        "__init__": "ones", 
        "__lr_mult__": "1.0", 
        "__shape__": "(128,)", 
        "__storage_type__": "0", 
        "__wd_mult__": "1.0"
      }, 
      "inputs": []
    }, 
    {
      "op": "null", 
      "name": "resnetv1b_layers2_batchnorm0_beta", 
      "attrs": {
        "__dtype__": "0", 
        "__init__": "zeros", 
        "__lr_mult__": "1.0", 
        "__shape__": "(128,)", 
        "__storage_type__": "0", 
        "__wd_mult__": "1.0"
      }, 
      "inputs": []
    }, 
    {
      "op": "null", 
      "name": "resnetv1b_layers2_batchnorm0_running_mean", 
      "attrs": {
        "__dtype__": "0", 
        "__init__": "zeros", 
        "__lr_mult__": "1.0", 
        "__shape__": "(128,)", 
        "__storage_type__": "0", 
        "__wd_mult__": "1.0"
      }, 
      "inputs": []
    }, 
    {
      "op": "null", 
      "name": "resnetv1b_layers2_batchnorm0_running_var", 
      "attrs": {
        "__dtype__": "0", 
        "__init__": "ones", 
        "__lr_mult__": "1.0", 
        "__shape__": "(128,)", 
        "__storage_type__": "0", 
        "__wd_mult__": "1.0"
      }, 
      "inputs": []
    }, 
    {
      "op": "BatchNorm", 
      "name": "resnetv1b_layers2_batchnorm0_fwd", 
      "attrs": {
        "axis": "1", 
        "eps": "1e-05", 
        "fix_gamma": "False", 
        "momentum": "0.9", 
        "use_global_stats": "True"
      }, 
      "inputs": [[98, 0, 0], [99, 0, 0], [100, 0, 0], [101, 0, 2], [102, 0, 2]]
    }, 
    {
      "op": "Activation", 
      "name": "resnetv1b_layers2_relu0_fwd", 
      "attrs": {"act_type": "relu"}, 
      "inputs": [[103, 0, 0]]
    }, 
    {
      "op": "null", 
      "name": "resnetv1b_layers2_conv1_weight", 
      "attrs": {
        "__dtype__": "0", 
        "__lr_mult__": "1.0", 
        "__shape__": "(128, 128, 3, 3)", 
        "__storage_type__": "0", 
        "__wd_mult__": "1.0"
      }, 
      "inputs": []
    }, 
    {
      "op": "Convolution", 
      "name": "resnetv1b_layers2_conv1_fwd", 
      "attrs": {
        "dilate": "(1, 1)", 
        "kernel": "(3, 3)", 
        "layout": "NCHW", 
        "no_bias": "True", 
        "num_filter": "128", 
        "num_group": "1", 
        "pad": "(1, 1)", 
        "stride": "(2, 2)"
      }, 
      "inputs": [[104, 0, 0], [105, 0, 0]]
    }, 
    {
      "op": "null", 
      "name": "resnetv1b_layers2_batchnorm1_gamma", 
      "attrs": {
        "__dtype__": "0", 
        "__init__": "ones", 
        "__lr_mult__": "1.0", 
        "__shape__": "(128,)", 
        "__storage_type__": "0", 
        "__wd_mult__": "1.0"
      }, 
      "inputs": []
    }, 
    {
      "op": "null", 
      "name": "resnetv1b_layers2_batchnorm1_beta", 
      "attrs": {
        "__dtype__": "0", 
        "__init__": "zeros", 
        "__lr_mult__": "1.0", 
        "__shape__": "(128,)", 
        "__storage_type__": "0", 
        "__wd_mult__": "1.0"
      }, 
      "inputs": []
    }, 
    {
      "op": "null", 
      "name": "resnetv1b_layers2_batchnorm1_running_mean", 
      "attrs": {
        "__dtype__": "0", 
        "__init__": "zeros", 
        "__lr_mult__": "1.0", 
        "__shape__": "(128,)", 
        "__storage_type__": "0", 
        "__wd_mult__": "1.0"
      }, 
      "inputs": []
    }, 
    {
      "op": "null", 
      "name": "resnetv1b_layers2_batchnorm1_running_var", 
      "attrs": {
        "__dtype__": "0", 
        "__init__": "ones", 
        "__lr_mult__": "1.0", 
        "__shape__": "(128,)", 
        "__storage_type__": "0", 
        "__wd_mult__": "1.0"
      }, 
      "inputs": []
    }, 
    {
      "op": "BatchNorm", 
      "name": "resnetv1b_layers2_batchnorm1_fwd", 
      "attrs": {
        "axis": "1", 
        "eps": "1e-05", 
        "fix_gamma": "False", 
        "momentum": "0.9", 
        "use_global_stats": "True"
      }, 
      "inputs": [[106, 0, 0], [107, 0, 0], [108, 0, 0], [109, 0, 2], [110, 0, 2]]
    }, 
    {
      "op": "Activation", 
      "name": "resnetv1b_layers2_relu1_fwd", 
      "attrs": {"act_type": "relu"}, 
      "inputs": [[111, 0, 0]]
    }, 
    {
      "op": "null", 
      "name": "resnetv1b_layers2_conv2_weight", 
      "attrs": {
        "__dtype__": "0", 
        "__lr_mult__": "1.0", 
        "__shape__": "(512, 128, 1, 1)", 
        "__storage_type__": "0", 
        "__wd_mult__": "1.0"
      }, 
      "inputs": []
    }, 
    {
      "op": "Convolution", 
      "name": "resnetv1b_layers2_conv2_fwd", 
      "attrs": {
        "dilate": "(1, 1)", 
        "kernel": "(1, 1)", 
        "layout": "NCHW", 
        "no_bias": "True", 
        "num_filter": "512", 
        "num_group": "1", 
        "pad": "(0, 0)", 
        "stride": "(1, 1)"
      }, 
      "inputs": [[112, 0, 0], [113, 0, 0]]
    }, 
    {
      "op": "null", 
      "name": "resnetv1b_layers2_batchnorm2_gamma", 
      "attrs": {
        "__dtype__": "0", 
        "__init__": "ones", 
        "__lr_mult__": "1.0", 
        "__shape__": "(512,)", 
        "__storage_type__": "0", 
        "__wd_mult__": "1.0"
      }, 
      "inputs": []
    }, 
    {
      "op": "null", 
      "name": "resnetv1b_layers2_batchnorm2_beta", 
      "attrs": {
        "__dtype__": "0", 
        "__init__": "zeros", 
        "__lr_mult__": "1.0", 
        "__shape__": "(512,)", 
        "__storage_type__": "0", 
        "__wd_mult__": "1.0"
      }, 
      "inputs": []
    }, 
    {
      "op": "null", 
      "name": "resnetv1b_layers2_batchnorm2_running_mean", 
      "attrs": {
        "__dtype__": "0", 
        "__init__": "zeros", 
        "__lr_mult__": "1.0", 
        "__shape__": "(512,)", 
        "__storage_type__": "0", 
        "__wd_mult__": "1.0"
      }, 
      "inputs": []
    }, 
    {
      "op": "null", 
      "name": "resnetv1b_layers2_batchnorm2_running_var", 
      "attrs": {
        "__dtype__": "0", 
        "__init__": "ones", 
        "__lr_mult__": "1.0", 
        "__shape__": "(512,)", 
        "__storage_type__": "0", 
        "__wd_mult__": "1.0"
      }, 
      "inputs": []
    }, 
    {
      "op": "BatchNorm", 
      "name": "resnetv1b_layers2_batchnorm2_fwd", 
      "attrs": {
        "axis": "1", 
        "eps": "1e-05", 
        "fix_gamma": "False", 
        "momentum": "0.9", 
        "use_global_stats": "True"
      }, 
      "inputs": [[114, 0, 0], [115, 0, 0], [116, 0, 0], [117, 0, 2], [118, 0, 2]]
    }, 
    {
      "op": "null", 
      "name": "resnetv1b_down2_conv0_weight", 
      "attrs": {
        "__dtype__": "0", 
        "__lr_mult__": "1.0", 
        "__shape__": "(512, 256, 1, 1)", 
        "__storage_type__": "0", 
        "__wd_mult__": "1.0"
      }, 
      "inputs": []
    }, 
    {
      "op": "Convolution", 
      "name": "resnetv1b_down2_conv0_fwd", 
      "attrs": {
        "dilate": "(1, 1)", 
        "kernel": "(1, 1)", 
        "layout": "NCHW", 
        "no_bias": "True", 
        "num_filter": "512", 
        "num_group": "1", 
        "pad": "(0, 0)", 
        "stride": "(2, 2)"
      }, 
      "inputs": [[96, 0, 0], [120, 0, 0]]
    }, 
    {
      "op": "null", 
      "name": "resnetv1b_down2_batchnorm0_gamma", 
      "attrs": {
        "__dtype__": "0", 
        "__init__": "ones", 
        "__lr_mult__": "1.0", 
        "__shape__": "(512,)", 
        "__storage_type__": "0", 
        "__wd_mult__": "1.0"
      }, 
      "inputs": []
    }, 
    {
      "op": "null", 
      "name": "resnetv1b_down2_batchnorm0_beta", 
      "attrs": {
        "__dtype__": "0", 
        "__init__": "zeros", 
        "__lr_mult__": "1.0", 
        "__shape__": "(512,)", 
        "__storage_type__": "0", 
        "__wd_mult__": "1.0"
      }, 
      "inputs": []
    }, 
    {
      "op": "null", 
      "name": "resnetv1b_down2_batchnorm0_running_mean", 
      "attrs": {
        "__dtype__": "0", 
        "__init__": "zeros", 
        "__lr_mult__": "1.0", 
        "__shape__": "(512,)", 
        "__storage_type__": "0", 
        "__wd_mult__": "1.0"
      }, 
      "inputs": []
    }, 
    {
      "op": "null", 
      "name": "resnetv1b_down2_batchnorm0_running_var", 
      "attrs": {
        "__dtype__": "0", 
        "__init__": "ones", 
        "__lr_mult__": "1.0", 
        "__shape__": "(512,)", 
        "__storage_type__": "0", 
        "__wd_mult__": "1.0"
      }, 
      "inputs": []
    }, 
    {
      "op": "BatchNorm", 
      "name": "resnetv1b_down2_batchnorm0_fwd", 
      "attrs": {
        "axis": "1", 
        "eps": "1e-05", 
        "fix_gamma": "False", 
        "momentum": "0.9", 
        "use_global_stats": "True"
      }, 
      "inputs": [[121, 0, 0], [122, 0, 0], [123, 0, 0], [124, 0, 2], [125, 0, 2]]
    }, 
    {
      "op": "elemwise_add", 
      "name": "resnetv1b_layers2_bottleneckv1b0__plus0", 
      "inputs": [[119, 0, 0], [126, 0, 0]]
    }, 
    {
      "op": "Activation", 
      "name": "resnetv1b_layers2_relu2_fwd", 
      "attrs": {"act_type": "relu"}, 
      "inputs": [[127, 0, 0]]
    }, 
    {
      "op": "null", 
      "name": "resnetv1b_layers2_conv3_weight", 
      "attrs": {
        "__dtype__": "0", 
        "__lr_mult__": "1.0", 
        "__shape__": "(128, 512, 1, 1)", 
        "__storage_type__": "0", 
        "__wd_mult__": "1.0"
      }, 
      "inputs": []
    }, 
    {
      "op": "Convolution", 
      "name": "resnetv1b_layers2_conv3_fwd", 
      "attrs": {
        "dilate": "(1, 1)", 
        "kernel": "(1, 1)", 
        "layout": "NCHW", 
        "no_bias": "True", 
        "num_filter": "128", 
        "num_group": "1", 
        "pad": "(0, 0)", 
        "stride": "(1, 1)"
      }, 
      "inputs": [[128, 0, 0], [129, 0, 0]]
    }, 
    {
      "op": "null", 
      "name": "resnetv1b_layers2_batchnorm3_gamma", 
      "attrs": {
        "__dtype__": "0", 
        "__init__": "ones", 
        "__lr_mult__": "1.0", 
        "__shape__": "(128,)", 
        "__storage_type__": "0", 
        "__wd_mult__": "1.0"
      }, 
      "inputs": []
    }, 
    {
      "op": "null", 
      "name": "resnetv1b_layers2_batchnorm3_beta", 
      "attrs": {
        "__dtype__": "0", 
        "__init__": "zeros", 
        "__lr_mult__": "1.0", 
        "__shape__": "(128,)", 
        "__storage_type__": "0", 
        "__wd_mult__": "1.0"
      }, 
      "inputs": []
    }, 
    {
      "op": "null", 
      "name": "resnetv1b_layers2_batchnorm3_running_mean", 
      "attrs": {
        "__dtype__": "0", 
        "__init__": "zeros", 
        "__lr_mult__": "1.0", 
        "__shape__": "(128,)", 
        "__storage_type__": "0", 
        "__wd_mult__": "1.0"
      }, 
      "inputs": []
    }, 
    {
      "op": "null", 
      "name": "resnetv1b_layers2_batchnorm3_running_var", 
      "attrs": {
        "__dtype__": "0", 
        "__init__": "ones", 
        "__lr_mult__": "1.0", 
        "__shape__": "(128,)", 
        "__storage_type__": "0", 
        "__wd_mult__": "1.0"
      }, 
      "inputs": []
    }, 
    {
      "op": "BatchNorm", 
      "name": "resnetv1b_layers2_batchnorm3_fwd", 
      "attrs": {
        "axis": "1", 
        "eps": "1e-05", 
        "fix_gamma": "False", 
        "momentum": "0.9", 
        "use_global_stats": "True"
      }, 
      "inputs": [[130, 0, 0], [131, 0, 0], [132, 0, 0], [133, 0, 2], [134, 0, 2]]
    }, 
    {
      "op": "Activation", 
      "name": "resnetv1b_layers2_relu3_fwd", 
      "attrs": {"act_type": "relu"}, 
      "inputs": [[135, 0, 0]]
    }, 
    {
      "op": "null", 
      "name": "resnetv1b_layers2_conv4_weight", 
      "attrs": {
        "__dtype__": "0", 
        "__lr_mult__": "1.0", 
        "__shape__": "(128, 128, 3, 3)", 
        "__storage_type__": "0", 
        "__wd_mult__": "1.0"
      }, 
      "inputs": []
    }, 
    {
      "op": "Convolution", 
      "name": "resnetv1b_layers2_conv4_fwd", 
      "attrs": {
        "dilate": "(1, 1)", 
        "kernel": "(3, 3)", 
        "layout": "NCHW", 
        "no_bias": "True", 
        "num_filter": "128", 
        "num_group": "1", 
        "pad": "(1, 1)", 
        "stride": "(1, 1)"
      }, 
      "inputs": [[136, 0, 0], [137, 0, 0]]
    }, 
    {
      "op": "null", 
      "name": "resnetv1b_layers2_batchnorm4_gamma", 
      "attrs": {
        "__dtype__": "0", 
        "__init__": "ones", 
        "__lr_mult__": "1.0", 
        "__shape__": "(128,)", 
        "__storage_type__": "0", 
        "__wd_mult__": "1.0"
      }, 
      "inputs": []
    }, 
    {
      "op": "null", 
      "name": "resnetv1b_layers2_batchnorm4_beta", 
      "attrs": {
        "__dtype__": "0", 
        "__init__": "zeros", 
        "__lr_mult__": "1.0", 
        "__shape__": "(128,)", 
        "__storage_type__": "0", 
        "__wd_mult__": "1.0"
      }, 
      "inputs": []
    }, 
    {
      "op": "null", 
      "name": "resnetv1b_layers2_batchnorm4_running_mean", 
      "attrs": {
        "__dtype__": "0", 
        "__init__": "zeros", 
        "__lr_mult__": "1.0", 
        "__shape__": "(128,)", 
        "__storage_type__": "0", 
        "__wd_mult__": "1.0"
      }, 
      "inputs": []
    }, 
    {
      "op": "null", 
      "name": "resnetv1b_layers2_batchnorm4_running_var", 
      "attrs": {
        "__dtype__": "0", 
        "__init__": "ones", 
        "__lr_mult__": "1.0", 
        "__shape__": "(128,)", 
        "__storage_type__": "0", 
        "__wd_mult__": "1.0"
      }, 
      "inputs": []
    }, 
    {
      "op": "BatchNorm", 
      "name": "resnetv1b_layers2_batchnorm4_fwd", 
      "attrs": {
        "axis": "1", 
        "eps": "1e-05", 
        "fix_gamma": "False", 
        "momentum": "0.9", 
        "use_global_stats": "True"
      }, 
      "inputs": [[138, 0, 0], [139, 0, 0], [140, 0, 0], [141, 0, 2], [142, 0, 2]]
    }, 
    {
      "op": "Activation", 
      "name": "resnetv1b_layers2_relu4_fwd", 
      "attrs": {"act_type": "relu"}, 
      "inputs": [[143, 0, 0]]
    }, 
    {
      "op": "null", 
      "name": "resnetv1b_layers2_conv5_weight", 
      "attrs": {
        "__dtype__": "0", 
        "__lr_mult__": "1.0", 
        "__shape__": "(512, 128, 1, 1)", 
        "__storage_type__": "0", 
        "__wd_mult__": "1.0"
      }, 
      "inputs": []
    }, 
    {
      "op": "Convolution", 
      "name": "resnetv1b_layers2_conv5_fwd", 
      "attrs": {
        "dilate": "(1, 1)", 
        "kernel": "(1, 1)", 
        "layout": "NCHW", 
        "no_bias": "True", 
        "num_filter": "512", 
        "num_group": "1", 
        "pad": "(0, 0)", 
        "stride": "(1, 1)"
      }, 
      "inputs": [[144, 0, 0], [145, 0, 0]]
    }, 
    {
      "op": "null", 
      "name": "resnetv1b_layers2_batchnorm5_gamma", 
      "attrs": {
        "__dtype__": "0", 
        "__init__": "ones", 
        "__lr_mult__": "1.0", 
        "__shape__": "(512,)", 
        "__storage_type__": "0", 
        "__wd_mult__": "1.0"
      }, 
      "inputs": []
    }, 
    {
      "op": "null", 
      "name": "resnetv1b_layers2_batchnorm5_beta", 
      "attrs": {
        "__dtype__": "0", 
        "__init__": "zeros", 
        "__lr_mult__": "1.0", 
        "__shape__": "(512,)", 
        "__storage_type__": "0", 
        "__wd_mult__": "1.0"
      }, 
      "inputs": []
    }, 
    {
      "op": "null", 
      "name": "resnetv1b_layers2_batchnorm5_running_mean", 
      "attrs": {
        "__dtype__": "0", 
        "__init__": "zeros", 
        "__lr_mult__": "1.0", 
        "__shape__": "(512,)", 
        "__storage_type__": "0", 
        "__wd_mult__": "1.0"
      }, 
      "inputs": []
    }, 
    {
      "op": "null", 
      "name": "resnetv1b_layers2_batchnorm5_running_var", 
      "attrs": {
        "__dtype__": "0", 
        "__init__": "ones", 
        "__lr_mult__": "1.0", 
        "__shape__": "(512,)", 
        "__storage_type__": "0", 
        "__wd_mult__": "1.0"
      }, 
      "inputs": []
    }, 
    {
      "op": "BatchNorm", 
      "name": "resnetv1b_layers2_batchnorm5_fwd", 
      "attrs": {
        "axis": "1", 
        "eps": "1e-05", 
        "fix_gamma": "False", 
        "momentum": "0.9", 
        "use_global_stats": "True"
      }, 
      "inputs": [[146, 0, 0], [147, 0, 0], [148, 0, 0], [149, 0, 2], [150, 0, 2]]
    }, 
    {
      "op": "elemwise_add", 
      "name": "resnetv1b_layers2_bottleneckv1b1__plus0", 
      "inputs": [[151, 0, 0], [128, 0, 0]]
    }, 
    {
      "op": "Activation", 
      "name": "resnetv1b_layers2_relu5_fwd", 
      "attrs": {"act_type": "relu"}, 
      "inputs": [[152, 0, 0]]
    }, 
    {
      "op": "null", 
      "name": "resnetv1b_layers2_conv6_weight", 
      "attrs": {
        "__dtype__": "0", 
        "__lr_mult__": "1.0", 
        "__shape__": "(128, 512, 1, 1)", 
        "__storage_type__": "0", 
        "__wd_mult__": "1.0"
      }, 
      "inputs": []
    }, 
    {
      "op": "Convolution", 
      "name": "resnetv1b_layers2_conv6_fwd", 
      "attrs": {
        "dilate": "(1, 1)", 
        "kernel": "(1, 1)", 
        "layout": "NCHW", 
        "no_bias": "True", 
        "num_filter": "128", 
        "num_group": "1", 
        "pad": "(0, 0)", 
        "stride": "(1, 1)"
      }, 
      "inputs": [[153, 0, 0], [154, 0, 0]]
    }, 
    {
      "op": "null", 
      "name": "resnetv1b_layers2_batchnorm6_gamma", 
      "attrs": {
        "__dtype__": "0", 
        "__init__": "ones", 
        "__lr_mult__": "1.0", 
        "__shape__": "(128,)", 
        "__storage_type__": "0", 
        "__wd_mult__": "1.0"
      }, 
      "inputs": []
    }, 
    {
      "op": "null", 
      "name": "resnetv1b_layers2_batchnorm6_beta", 
      "attrs": {
        "__dtype__": "0", 
        "__init__": "zeros", 
        "__lr_mult__": "1.0", 
        "__shape__": "(128,)", 
        "__storage_type__": "0", 
        "__wd_mult__": "1.0"
      }, 
      "inputs": []
    }, 
    {
      "op": "null", 
      "name": "resnetv1b_layers2_batchnorm6_running_mean", 
      "attrs": {
        "__dtype__": "0", 
        "__init__": "zeros", 
        "__lr_mult__": "1.0", 
        "__shape__": "(128,)", 
        "__storage_type__": "0", 
        "__wd_mult__": "1.0"
      }, 
      "inputs": []
    }, 
    {
      "op": "null", 
      "name": "resnetv1b_layers2_batchnorm6_running_var", 
      "attrs": {
        "__dtype__": "0", 
        "__init__": "ones", 
        "__lr_mult__": "1.0", 
        "__shape__": "(128,)", 
        "__storage_type__": "0", 
        "__wd_mult__": "1.0"
      }, 
      "inputs": []
    }, 
    {
      "op": "BatchNorm", 
      "name": "resnetv1b_layers2_batchnorm6_fwd", 
      "attrs": {
        "axis": "1", 
        "eps": "1e-05", 
        "fix_gamma": "False", 
        "momentum": "0.9", 
        "use_global_stats": "True"
      }, 
      "inputs": [[155, 0, 0], [156, 0, 0], [157, 0, 0], [158, 0, 2], [159, 0, 2]]
    }, 
    {
      "op": "Activation", 
      "name": "resnetv1b_layers2_relu6_fwd", 
      "attrs": {"act_type": "relu"}, 
      "inputs": [[160, 0, 0]]
    }, 
    {
      "op": "null", 
      "name": "resnetv1b_layers2_conv7_weight", 
      "attrs": {
        "__dtype__": "0", 
        "__lr_mult__": "1.0", 
        "__shape__": "(128, 128, 3, 3)", 
        "__storage_type__": "0", 
        "__wd_mult__": "1.0"
      }, 
      "inputs": []
    }, 
    {
      "op": "Convolution", 
      "name": "resnetv1b_layers2_conv7_fwd", 
      "attrs": {
        "dilate": "(1, 1)", 
        "kernel": "(3, 3)", 
        "layout": "NCHW", 
        "no_bias": "True", 
        "num_filter": "128", 
        "num_group": "1", 
        "pad": "(1, 1)", 
        "stride": "(1, 1)"
      }, 
      "inputs": [[161, 0, 0], [162, 0, 0]]
    }, 
    {
      "op": "null", 
      "name": "resnetv1b_layers2_batchnorm7_gamma", 
      "attrs": {
        "__dtype__": "0", 
        "__init__": "ones", 
        "__lr_mult__": "1.0", 
        "__shape__": "(128,)", 
        "__storage_type__": "0", 
        "__wd_mult__": "1.0"
      }, 
      "inputs": []
    }, 
    {
      "op": "null", 
      "name": "resnetv1b_layers2_batchnorm7_beta", 
      "attrs": {
        "__dtype__": "0", 
        "__init__": "zeros", 
        "__lr_mult__": "1.0", 
        "__shape__": "(128,)", 
        "__storage_type__": "0", 
        "__wd_mult__": "1.0"
      }, 
      "inputs": []
    }, 
    {
      "op": "null", 
      "name": "resnetv1b_layers2_batchnorm7_running_mean", 
      "attrs": {
        "__dtype__": "0", 
        "__init__": "zeros", 
        "__lr_mult__": "1.0", 
        "__shape__": "(128,)", 
        "__storage_type__": "0", 
        "__wd_mult__": "1.0"
      }, 
      "inputs": []
    }, 
    {
      "op": "null", 
      "name": "resnetv1b_layers2_batchnorm7_running_var", 
      "attrs": {
        "__dtype__": "0", 
        "__init__": "ones", 
        "__lr_mult__": "1.0", 
        "__shape__": "(128,)", 
        "__storage_type__": "0", 
        "__wd_mult__": "1.0"
      }, 
      "inputs": []
    }, 
    {
      "op": "BatchNorm", 
      "name": "resnetv1b_layers2_batchnorm7_fwd", 
      "attrs": {
        "axis": "1", 
        "eps": "1e-05", 
        "fix_gamma": "False", 
        "momentum": "0.9", 
        "use_global_stats": "True"
      }, 
      "inputs": [[163, 0, 0], [164, 0, 0], [165, 0, 0], [166, 0, 2], [167, 0, 2]]
    }, 
    {
      "op": "Activation", 
      "name": "resnetv1b_layers2_relu7_fwd", 
      "attrs": {"act_type": "relu"}, 
      "inputs": [[168, 0, 0]]
    }, 
    {
      "op": "null", 
      "name": "resnetv1b_layers2_conv8_weight", 
      "attrs": {
        "__dtype__": "0", 
        "__lr_mult__": "1.0", 
        "__shape__": "(512, 128, 1, 1)", 
        "__storage_type__": "0", 
        "__wd_mult__": "1.0"
      }, 
      "inputs": []
    }, 
    {
      "op": "Convolution", 
      "name": "resnetv1b_layers2_conv8_fwd", 
      "attrs": {
        "dilate": "(1, 1)", 
        "kernel": "(1, 1)", 
        "layout": "NCHW", 
        "no_bias": "True", 
        "num_filter": "512", 
        "num_group": "1", 
        "pad": "(0, 0)", 
        "stride": "(1, 1)"
      }, 
      "inputs": [[169, 0, 0], [170, 0, 0]]
    }, 
    {
      "op": "null", 
      "name": "resnetv1b_layers2_batchnorm8_gamma", 
      "attrs": {
        "__dtype__": "0", 
        "__init__": "ones", 
        "__lr_mult__": "1.0", 
        "__shape__": "(512,)", 
        "__storage_type__": "0", 
        "__wd_mult__": "1.0"
      }, 
      "inputs": []
    }, 
    {
      "op": "null", 
      "name": "resnetv1b_layers2_batchnorm8_beta", 
      "attrs": {
        "__dtype__": "0", 
        "__init__": "zeros", 
        "__lr_mult__": "1.0", 
        "__shape__": "(512,)", 
        "__storage_type__": "0", 
        "__wd_mult__": "1.0"
      }, 
      "inputs": []
    }, 
    {
      "op": "null", 
      "name": "resnetv1b_layers2_batchnorm8_running_mean", 
      "attrs": {
        "__dtype__": "0", 
        "__init__": "zeros", 
        "__lr_mult__": "1.0", 
        "__shape__": "(512,)", 
        "__storage_type__": "0", 
        "__wd_mult__": "1.0"
      }, 
      "inputs": []
    }, 
    {
      "op": "null", 
      "name": "resnetv1b_layers2_batchnorm8_running_var", 
      "attrs": {
        "__dtype__": "0", 
        "__init__": "ones", 
        "__lr_mult__": "1.0", 
        "__shape__": "(512,)", 
        "__storage_type__": "0", 
        "__wd_mult__": "1.0"
      }, 
      "inputs": []
    }, 
    {
      "op": "BatchNorm", 
      "name": "resnetv1b_layers2_batchnorm8_fwd", 
      "attrs": {
        "axis": "1", 
        "eps": "1e-05", 
        "fix_gamma": "False", 
        "momentum": "0.9", 
        "use_global_stats": "True"
      }, 
      "inputs": [[171, 0, 0], [172, 0, 0], [173, 0, 0], [174, 0, 2], [175, 0, 2]]
    }, 
    {
      "op": "elemwise_add", 
      "name": "resnetv1b_layers2_bottleneckv1b2__plus0", 
      "inputs": [[176, 0, 0], [153, 0, 0]]
    }, 
    {
      "op": "Activation", 
      "name": "resnetv1b_layers2_relu8_fwd", 
      "attrs": {"act_type": "relu"}, 
      "inputs": [[177, 0, 0]]
    }, 
    {
      "op": "null", 
      "name": "resnetv1b_layers2_conv9_weight", 
      "attrs": {
        "__dtype__": "0", 
        "__lr_mult__": "1.0", 
        "__shape__": "(128, 512, 1, 1)", 
        "__storage_type__": "0", 
        "__wd_mult__": "1.0"
      }, 
      "inputs": []
    }, 
    {
      "op": "Convolution", 
      "name": "resnetv1b_layers2_conv9_fwd", 
      "attrs": {
        "dilate": "(1, 1)", 
        "kernel": "(1, 1)", 
        "layout": "NCHW", 
        "no_bias": "True", 
        "num_filter": "128", 
        "num_group": "1", 
        "pad": "(0, 0)", 
        "stride": "(1, 1)"
      }, 
      "inputs": [[178, 0, 0], [179, 0, 0]]
    }, 
    {
      "op": "null", 
      "name": "resnetv1b_layers2_batchnorm9_gamma", 
      "attrs": {
        "__dtype__": "0", 
        "__init__": "ones", 
        "__lr_mult__": "1.0", 
        "__shape__": "(128,)", 
        "__storage_type__": "0", 
        "__wd_mult__": "1.0"
      }, 
      "inputs": []
    }, 
    {
      "op": "null", 
      "name": "resnetv1b_layers2_batchnorm9_beta", 
      "attrs": {
        "__dtype__": "0", 
        "__init__": "zeros", 
        "__lr_mult__": "1.0", 
        "__shape__": "(128,)", 
        "__storage_type__": "0", 
        "__wd_mult__": "1.0"
      }, 
      "inputs": []
    }, 
    {
      "op": "null", 
      "name": "resnetv1b_layers2_batchnorm9_running_mean", 
      "attrs": {
        "__dtype__": "0", 
        "__init__": "zeros", 
        "__lr_mult__": "1.0", 
        "__shape__": "(128,)", 
        "__storage_type__": "0", 
        "__wd_mult__": "1.0"
      }, 
      "inputs": []
    }, 
    {
      "op": "null", 
      "name": "resnetv1b_layers2_batchnorm9_running_var", 
      "attrs": {
        "__dtype__": "0", 
        "__init__": "ones", 
        "__lr_mult__": "1.0", 
        "__shape__": "(128,)", 
        "__storage_type__": "0", 
        "__wd_mult__": "1.0"
      }, 
      "inputs": []
    }, 
    {
      "op": "BatchNorm", 
      "name": "resnetv1b_layers2_batchnorm9_fwd", 
      "attrs": {
        "axis": "1", 
        "eps": "1e-05", 
        "fix_gamma": "False", 
        "momentum": "0.9", 
        "use_global_stats": "True"
      }, 
      "inputs": [[180, 0, 0], [181, 0, 0], [182, 0, 0], [183, 0, 2], [184, 0, 2]]
    }, 
    {
      "op": "Activation", 
      "name": "resnetv1b_layers2_relu9_fwd", 
      "attrs": {"act_type": "relu"}, 
      "inputs": [[185, 0, 0]]
    }, 
    {
      "op": "null", 
      "name": "resnetv1b_layers2_conv10_weight", 
      "attrs": {
        "__dtype__": "0", 
        "__lr_mult__": "1.0", 
        "__shape__": "(128, 128, 3, 3)", 
        "__storage_type__": "0", 
        "__wd_mult__": "1.0"
      }, 
      "inputs": []
    }, 
    {
      "op": "Convolution", 
      "name": "resnetv1b_layers2_conv10_fwd", 
      "attrs": {
        "dilate": "(1, 1)", 
        "kernel": "(3, 3)", 
        "layout": "NCHW", 
        "no_bias": "True", 
        "num_filter": "128", 
        "num_group": "1", 
        "pad": "(1, 1)", 
        "stride": "(1, 1)"
      }, 
      "inputs": [[186, 0, 0], [187, 0, 0]]
    }, 
    {
      "op": "null", 
      "name": "resnetv1b_layers2_batchnorm10_gamma", 
      "attrs": {
        "__dtype__": "0", 
        "__init__": "ones", 
        "__lr_mult__": "1.0", 
        "__shape__": "(128,)", 
        "__storage_type__": "0", 
        "__wd_mult__": "1.0"
      }, 
      "inputs": []
    }, 
    {
      "op": "null", 
      "name": "resnetv1b_layers2_batchnorm10_beta", 
      "attrs": {
        "__dtype__": "0", 
        "__init__": "zeros", 
        "__lr_mult__": "1.0", 
        "__shape__": "(128,)", 
        "__storage_type__": "0", 
        "__wd_mult__": "1.0"
      }, 
      "inputs": []
    }, 
    {
      "op": "null", 
      "name": "resnetv1b_layers2_batchnorm10_running_mean", 
      "attrs": {
        "__dtype__": "0", 
        "__init__": "zeros", 
        "__lr_mult__": "1.0", 
        "__shape__": "(128,)", 
        "__storage_type__": "0", 
        "__wd_mult__": "1.0"
      }, 
      "inputs": []
    }, 
    {
      "op": "null", 
      "name": "resnetv1b_layers2_batchnorm10_running_var", 
      "attrs": {
        "__dtype__": "0", 
        "__init__": "ones", 
        "__lr_mult__": "1.0", 
        "__shape__": "(128,)", 
        "__storage_type__": "0", 
        "__wd_mult__": "1.0"
      }, 
      "inputs": []
    }, 
    {
      "op": "BatchNorm", 
      "name": "resnetv1b_layers2_batchnorm10_fwd", 
      "attrs": {
        "axis": "1", 
        "eps": "1e-05", 
        "fix_gamma": "False", 
        "momentum": "0.9", 
        "use_global_stats": "True"
      }, 
      "inputs": [[188, 0, 0], [189, 0, 0], [190, 0, 0], [191, 0, 2], [192, 0, 2]]
    }, 
    {
      "op": "Activation", 
      "name": "resnetv1b_layers2_relu10_fwd", 
      "attrs": {"act_type": "relu"}, 
      "inputs": [[193, 0, 0]]
    }, 
    {
      "op": "null", 
      "name": "resnetv1b_layers2_conv11_weight", 
      "attrs": {
        "__dtype__": "0", 
        "__lr_mult__": "1.0", 
        "__shape__": "(512, 128, 1, 1)", 
        "__storage_type__": "0", 
        "__wd_mult__": "1.0"
      }, 
      "inputs": []
    }, 
    {
      "op": "Convolution", 
      "name": "resnetv1b_layers2_conv11_fwd", 
      "attrs": {
        "dilate": "(1, 1)", 
        "kernel": "(1, 1)", 
        "layout": "NCHW", 
        "no_bias": "True", 
        "num_filter": "512", 
        "num_group": "1", 
        "pad": "(0, 0)", 
        "stride": "(1, 1)"
      }, 
      "inputs": [[194, 0, 0], [195, 0, 0]]
    }, 
    {
      "op": "null", 
      "name": "resnetv1b_layers2_batchnorm11_gamma", 
      "attrs": {
        "__dtype__": "0", 
        "__init__": "ones", 
        "__lr_mult__": "1.0", 
        "__shape__": "(512,)", 
        "__storage_type__": "0", 
        "__wd_mult__": "1.0"
      }, 
      "inputs": []
    }, 
    {
      "op": "null", 
      "name": "resnetv1b_layers2_batchnorm11_beta", 
      "attrs": {
        "__dtype__": "0", 
        "__init__": "zeros", 
        "__lr_mult__": "1.0", 
        "__shape__": "(512,)", 
        "__storage_type__": "0", 
        "__wd_mult__": "1.0"
      }, 
      "inputs": []
    }, 
    {
      "op": "null", 
      "name": "resnetv1b_layers2_batchnorm11_running_mean", 
      "attrs": {
        "__dtype__": "0", 
        "__init__": "zeros", 
        "__lr_mult__": "1.0", 
        "__shape__": "(512,)", 
        "__storage_type__": "0", 
        "__wd_mult__": "1.0"
      }, 
      "inputs": []
    }, 
    {
      "op": "null", 
      "name": "resnetv1b_layers2_batchnorm11_running_var", 
      "attrs": {
        "__dtype__": "0", 
        "__init__": "ones", 
        "__lr_mult__": "1.0", 
        "__shape__": "(512,)", 
        "__storage_type__": "0", 
        "__wd_mult__": "1.0"
      }, 
      "inputs": []
    }, 
    {
      "op": "BatchNorm", 
      "name": "resnetv1b_layers2_batchnorm11_fwd", 
      "attrs": {
        "axis": "1", 
        "eps": "1e-05", 
        "fix_gamma": "False", 
        "momentum": "0.9", 
        "use_global_stats": "True"
      }, 
      "inputs": [[196, 0, 0], [197, 0, 0], [198, 0, 0], [199, 0, 2], [200, 0, 2]]
    }, 
    {
      "op": "elemwise_add", 
      "name": "resnetv1b_layers2_bottleneckv1b3__plus0", 
      "inputs": [[201, 0, 0], [178, 0, 0]]
    }, 
    {
      "op": "Activation", 
      "name": "resnetv1b_layers2_relu11_fwd", 
      "attrs": {"act_type": "relu"}, 
      "inputs": [[202, 0, 0]]
    }, 
    {
      "op": "null", 
      "name": "resnetv1b_layers3_conv0_weight", 
      "attrs": {
        "__dtype__": "0", 
        "__lr_mult__": "1.0", 
        "__shape__": "(256, 512, 1, 1)", 
        "__storage_type__": "0", 
        "__wd_mult__": "1.0"
      }, 
      "inputs": []
    }, 
    {
      "op": "Convolution", 
      "name": "resnetv1b_layers3_conv0_fwd", 
      "attrs": {
        "dilate": "(1, 1)", 
        "kernel": "(1, 1)", 
        "layout": "NCHW", 
        "no_bias": "True", 
        "num_filter": "256", 
        "num_group": "1", 
        "pad": "(0, 0)", 
        "stride": "(1, 1)"
      }, 
      "inputs": [[203, 0, 0], [204, 0, 0]]
    }, 
    {
      "op": "null", 
      "name": "resnetv1b_layers3_batchnorm0_gamma", 
      "attrs": {
        "__dtype__": "0", 
        "__init__": "ones", 
        "__lr_mult__": "1.0", 
        "__shape__": "(256,)", 
        "__storage_type__": "0", 
        "__wd_mult__": "1.0"
      }, 
      "inputs": []
    }, 
    {
      "op": "null", 
      "name": "resnetv1b_layers3_batchnorm0_beta", 
      "attrs": {
        "__dtype__": "0", 
        "__init__": "zeros", 
        "__lr_mult__": "1.0", 
        "__shape__": "(256,)", 
        "__storage_type__": "0", 
        "__wd_mult__": "1.0"
      }, 
      "inputs": []
    }, 
    {
      "op": "null", 
      "name": "resnetv1b_layers3_batchnorm0_running_mean", 
      "attrs": {
        "__dtype__": "0", 
        "__init__": "zeros", 
        "__lr_mult__": "1.0", 
        "__shape__": "(256,)", 
        "__storage_type__": "0", 
        "__wd_mult__": "1.0"
      }, 
      "inputs": []
    }, 
    {
      "op": "null", 
      "name": "resnetv1b_layers3_batchnorm0_running_var", 
      "attrs": {
        "__dtype__": "0", 
        "__init__": "ones", 
        "__lr_mult__": "1.0", 
        "__shape__": "(256,)", 
        "__storage_type__": "0", 
        "__wd_mult__": "1.0"
      }, 
      "inputs": []
    }, 
    {
      "op": "BatchNorm", 
      "name": "resnetv1b_layers3_batchnorm0_fwd", 
      "attrs": {
        "axis": "1", 
        "eps": "1e-05", 
        "fix_gamma": "False", 
        "momentum": "0.9", 
        "use_global_stats": "True"
      }, 
      "inputs": [[205, 0, 0], [206, 0, 0], [207, 0, 0], [208, 0, 2], [209, 0, 2]]
    }, 
    {
      "op": "Activation", 
      "name": "resnetv1b_layers3_relu0_fwd", 
      "attrs": {"act_type": "relu"}, 
      "inputs": [[210, 0, 0]]
    }, 
    {
      "op": "null", 
      "name": "resnetv1b_layers3_conv1_weight", 
      "attrs": {
        "__dtype__": "0", 
        "__lr_mult__": "1.0", 
        "__shape__": "(256, 256, 3, 3)", 
        "__storage_type__": "0", 
        "__wd_mult__": "1.0"
      }, 
      "inputs": []
    }, 
    {
      "op": "Convolution", 
      "name": "resnetv1b_layers3_conv1_fwd", 
      "attrs": {
        "dilate": "(1, 1)", 
        "kernel": "(3, 3)", 
        "layout": "NCHW", 
        "no_bias": "True", 
        "num_filter": "256", 
        "num_group": "1", 
        "pad": "(1, 1)", 
        "stride": "(2, 2)"
      }, 
      "inputs": [[211, 0, 0], [212, 0, 0]]
    }, 
    {
      "op": "null", 
      "name": "resnetv1b_layers3_batchnorm1_gamma", 
      "attrs": {
        "__dtype__": "0", 
        "__init__": "ones", 
        "__lr_mult__": "1.0", 
        "__shape__": "(256,)", 
        "__storage_type__": "0", 
        "__wd_mult__": "1.0"
      }, 
      "inputs": []
    }, 
    {
      "op": "null", 
      "name": "resnetv1b_layers3_batchnorm1_beta", 
      "attrs": {
        "__dtype__": "0", 
        "__init__": "zeros", 
        "__lr_mult__": "1.0", 
        "__shape__": "(256,)", 
        "__storage_type__": "0", 
        "__wd_mult__": "1.0"
      }, 
      "inputs": []
    }, 
    {
      "op": "null", 
      "name": "resnetv1b_layers3_batchnorm1_running_mean", 
      "attrs": {
        "__dtype__": "0", 
        "__init__": "zeros", 
        "__lr_mult__": "1.0", 
        "__shape__": "(256,)", 
        "__storage_type__": "0", 
        "__wd_mult__": "1.0"
      }, 
      "inputs": []
    }, 
    {
      "op": "null", 
      "name": "resnetv1b_layers3_batchnorm1_running_var", 
      "attrs": {
        "__dtype__": "0", 
        "__init__": "ones", 
        "__lr_mult__": "1.0", 
        "__shape__": "(256,)", 
        "__storage_type__": "0", 
        "__wd_mult__": "1.0"
      }, 
      "inputs": []
    }, 
    {
      "op": "BatchNorm", 
      "name": "resnetv1b_layers3_batchnorm1_fwd", 
      "attrs": {
        "axis": "1", 
        "eps": "1e-05", 
        "fix_gamma": "False", 
        "momentum": "0.9", 
        "use_global_stats": "True"
      }, 
      "inputs": [[213, 0, 0], [214, 0, 0], [215, 0, 0], [216, 0, 2], [217, 0, 2]]
    }, 
    {
      "op": "Activation", 
      "name": "resnetv1b_layers3_relu1_fwd", 
      "attrs": {"act_type": "relu"}, 
      "inputs": [[218, 0, 0]]
    }, 
    {
      "op": "null", 
      "name": "resnetv1b_layers3_conv2_weight", 
      "attrs": {
        "__dtype__": "0", 
        "__lr_mult__": "1.0", 
        "__shape__": "(1024, 256, 1, 1)", 
        "__storage_type__": "0", 
        "__wd_mult__": "1.0"
      }, 
      "inputs": []
    }, 
    {
      "op": "Convolution", 
      "name": "resnetv1b_layers3_conv2_fwd", 
      "attrs": {
        "dilate": "(1, 1)", 
        "kernel": "(1, 1)", 
        "layout": "NCHW", 
        "no_bias": "True", 
        "num_filter": "1024", 
        "num_group": "1", 
        "pad": "(0, 0)", 
        "stride": "(1, 1)"
      }, 
      "inputs": [[219, 0, 0], [220, 0, 0]]
    }, 
    {
      "op": "null", 
      "name": "resnetv1b_layers3_batchnorm2_gamma", 
      "attrs": {
        "__dtype__": "0", 
        "__init__": "ones", 
        "__lr_mult__": "1.0", 
        "__shape__": "(1024,)", 
        "__storage_type__": "0", 
        "__wd_mult__": "1.0"
      }, 
      "inputs": []
    }, 
    {
      "op": "null", 
      "name": "resnetv1b_layers3_batchnorm2_beta", 
      "attrs": {
        "__dtype__": "0", 
        "__init__": "zeros", 
        "__lr_mult__": "1.0", 
        "__shape__": "(1024,)", 
        "__storage_type__": "0", 
        "__wd_mult__": "1.0"
      }, 
      "inputs": []
    }, 
    {
      "op": "null", 
      "name": "resnetv1b_layers3_batchnorm2_running_mean", 
      "attrs": {
        "__dtype__": "0", 
        "__init__": "zeros", 
        "__lr_mult__": "1.0", 
        "__shape__": "(1024,)", 
        "__storage_type__": "0", 
        "__wd_mult__": "1.0"
      }, 
      "inputs": []
    }, 
    {
      "op": "null", 
      "name": "resnetv1b_layers3_batchnorm2_running_var", 
      "attrs": {
        "__dtype__": "0", 
        "__init__": "ones", 
        "__lr_mult__": "1.0", 
        "__shape__": "(1024,)", 
        "__storage_type__": "0", 
        "__wd_mult__": "1.0"
      }, 
      "inputs": []
    }, 
    {
      "op": "BatchNorm", 
      "name": "resnetv1b_layers3_batchnorm2_fwd", 
      "attrs": {
        "axis": "1", 
        "eps": "1e-05", 
        "fix_gamma": "False", 
        "momentum": "0.9", 
        "use_global_stats": "True"
      }, 
      "inputs": [[221, 0, 0], [222, 0, 0], [223, 0, 0], [224, 0, 2], [225, 0, 2]]
    }, 
    {
      "op": "null", 
      "name": "resnetv1b_down3_conv0_weight", 
      "attrs": {
        "__dtype__": "0", 
        "__lr_mult__": "1.0", 
        "__shape__": "(1024, 512, 1, 1)", 
        "__storage_type__": "0", 
        "__wd_mult__": "1.0"
      }, 
      "inputs": []
    }, 
    {
      "op": "Convolution", 
      "name": "resnetv1b_down3_conv0_fwd", 
      "attrs": {
        "dilate": "(1, 1)", 
        "kernel": "(1, 1)", 
        "layout": "NCHW", 
        "no_bias": "True", 
        "num_filter": "1024", 
        "num_group": "1", 
        "pad": "(0, 0)", 
        "stride": "(2, 2)"
      }, 
      "inputs": [[203, 0, 0], [227, 0, 0]]
    }, 
    {
      "op": "null", 
      "name": "resnetv1b_down3_batchnorm0_gamma", 
      "attrs": {
        "__dtype__": "0", 
        "__init__": "ones", 
        "__lr_mult__": "1.0", 
        "__shape__": "(1024,)", 
        "__storage_type__": "0", 
        "__wd_mult__": "1.0"
      }, 
      "inputs": []
    }, 
    {
      "op": "null", 
      "name": "resnetv1b_down3_batchnorm0_beta", 
      "attrs": {
        "__dtype__": "0", 
        "__init__": "zeros", 
        "__lr_mult__": "1.0", 
        "__shape__": "(1024,)", 
        "__storage_type__": "0", 
        "__wd_mult__": "1.0"
      }, 
      "inputs": []
    }, 
    {
      "op": "null", 
      "name": "resnetv1b_down3_batchnorm0_running_mean", 
      "attrs": {
        "__dtype__": "0", 
        "__init__": "zeros", 
        "__lr_mult__": "1.0", 
        "__shape__": "(1024,)", 
        "__storage_type__": "0", 
        "__wd_mult__": "1.0"
      }, 
      "inputs": []
    }, 
    {
      "op": "null", 
      "name": "resnetv1b_down3_batchnorm0_running_var", 
      "attrs": {
        "__dtype__": "0", 
        "__init__": "ones", 
        "__lr_mult__": "1.0", 
        "__shape__": "(1024,)", 
        "__storage_type__": "0", 
        "__wd_mult__": "1.0"
      }, 
      "inputs": []
    }, 
    {
      "op": "BatchNorm", 
      "name": "resnetv1b_down3_batchnorm0_fwd", 
      "attrs": {
        "axis": "1", 
        "eps": "1e-05", 
        "fix_gamma": "False", 
        "momentum": "0.9", 
        "use_global_stats": "True"
      }, 
      "inputs": [[228, 0, 0], [229, 0, 0], [230, 0, 0], [231, 0, 2], [232, 0, 2]]
    }, 
    {
      "op": "elemwise_add", 
      "name": "resnetv1b_layers3_bottleneckv1b0__plus0", 
      "inputs": [[226, 0, 0], [233, 0, 0]]
    }, 
    {
      "op": "Activation", 
      "name": "resnetv1b_layers3_relu2_fwd", 
      "attrs": {"act_type": "relu"}, 
      "inputs": [[234, 0, 0]]
    }, 
    {
      "op": "null", 
      "name": "resnetv1b_layers3_conv3_weight", 
      "attrs": {
        "__dtype__": "0", 
        "__lr_mult__": "1.0", 
        "__shape__": "(256, 1024, 1, 1)", 
        "__storage_type__": "0", 
        "__wd_mult__": "1.0"
      }, 
      "inputs": []
    }, 
    {
      "op": "Convolution", 
      "name": "resnetv1b_layers3_conv3_fwd", 
      "attrs": {
        "dilate": "(1, 1)", 
        "kernel": "(1, 1)", 
        "layout": "NCHW", 
        "no_bias": "True", 
        "num_filter": "256", 
        "num_group": "1", 
        "pad": "(0, 0)", 
        "stride": "(1, 1)"
      }, 
      "inputs": [[235, 0, 0], [236, 0, 0]]
    }, 
    {
      "op": "null", 
      "name": "resnetv1b_layers3_batchnorm3_gamma", 
      "attrs": {
        "__dtype__": "0", 
        "__init__": "ones", 
        "__lr_mult__": "1.0", 
        "__shape__": "(256,)", 
        "__storage_type__": "0", 
        "__wd_mult__": "1.0"
      }, 
      "inputs": []
    }, 
    {
      "op": "null", 
      "name": "resnetv1b_layers3_batchnorm3_beta", 
      "attrs": {
        "__dtype__": "0", 
        "__init__": "zeros", 
        "__lr_mult__": "1.0", 
        "__shape__": "(256,)", 
        "__storage_type__": "0", 
        "__wd_mult__": "1.0"
      }, 
      "inputs": []
    }, 
    {
      "op": "null", 
      "name": "resnetv1b_layers3_batchnorm3_running_mean", 
      "attrs": {
        "__dtype__": "0", 
        "__init__": "zeros", 
        "__lr_mult__": "1.0", 
        "__shape__": "(256,)", 
        "__storage_type__": "0", 
        "__wd_mult__": "1.0"
      }, 
      "inputs": []
    }, 
    {
      "op": "null", 
      "name": "resnetv1b_layers3_batchnorm3_running_var", 
      "attrs": {
        "__dtype__": "0", 
        "__init__": "ones", 
        "__lr_mult__": "1.0", 
        "__shape__": "(256,)", 
        "__storage_type__": "0", 
        "__wd_mult__": "1.0"
      }, 
      "inputs": []
    }, 
    {
      "op": "BatchNorm", 
      "name": "resnetv1b_layers3_batchnorm3_fwd", 
      "attrs": {
        "axis": "1", 
        "eps": "1e-05", 
        "fix_gamma": "False", 
        "momentum": "0.9", 
        "use_global_stats": "True"
      }, 
      "inputs": [[237, 0, 0], [238, 0, 0], [239, 0, 0], [240, 0, 2], [241, 0, 2]]
    }, 
    {
      "op": "Activation", 
      "name": "resnetv1b_layers3_relu3_fwd", 
      "attrs": {"act_type": "relu"}, 
      "inputs": [[242, 0, 0]]
    }, 
    {
      "op": "null", 
      "name": "resnetv1b_layers3_conv4_weight", 
      "attrs": {
        "__dtype__": "0", 
        "__lr_mult__": "1.0", 
        "__shape__": "(256, 256, 3, 3)", 
        "__storage_type__": "0", 
        "__wd_mult__": "1.0"
      }, 
      "inputs": []
    }, 
    {
      "op": "Convolution", 
      "name": "resnetv1b_layers3_conv4_fwd", 
      "attrs": {
        "dilate": "(1, 1)", 
        "kernel": "(3, 3)", 
        "layout": "NCHW", 
        "no_bias": "True", 
        "num_filter": "256", 
        "num_group": "1", 
        "pad": "(1, 1)", 
        "stride": "(1, 1)"
      }, 
      "inputs": [[243, 0, 0], [244, 0, 0]]
    }, 
    {
      "op": "null", 
      "name": "resnetv1b_layers3_batchnorm4_gamma", 
      "attrs": {
        "__dtype__": "0", 
        "__init__": "ones", 
        "__lr_mult__": "1.0", 
        "__shape__": "(256,)", 
        "__storage_type__": "0", 
        "__wd_mult__": "1.0"
      }, 
      "inputs": []
    }, 
    {
      "op": "null", 
      "name": "resnetv1b_layers3_batchnorm4_beta", 
      "attrs": {
        "__dtype__": "0", 
        "__init__": "zeros", 
        "__lr_mult__": "1.0", 
        "__shape__": "(256,)", 
        "__storage_type__": "0", 
        "__wd_mult__": "1.0"
      }, 
      "inputs": []
    }, 
    {
      "op": "null", 
      "name": "resnetv1b_layers3_batchnorm4_running_mean", 
      "attrs": {
        "__dtype__": "0", 
        "__init__": "zeros", 
        "__lr_mult__": "1.0", 
        "__shape__": "(256,)", 
        "__storage_type__": "0", 
        "__wd_mult__": "1.0"
      }, 
      "inputs": []
    }, 
    {
      "op": "null", 
      "name": "resnetv1b_layers3_batchnorm4_running_var", 
      "attrs": {
        "__dtype__": "0", 
        "__init__": "ones", 
        "__lr_mult__": "1.0", 
        "__shape__": "(256,)", 
        "__storage_type__": "0", 
        "__wd_mult__": "1.0"
      }, 
      "inputs": []
    }, 
    {
      "op": "BatchNorm", 
      "name": "resnetv1b_layers3_batchnorm4_fwd", 
      "attrs": {
        "axis": "1", 
        "eps": "1e-05", 
        "fix_gamma": "False", 
        "momentum": "0.9", 
        "use_global_stats": "True"
      }, 
      "inputs": [[245, 0, 0], [246, 0, 0], [247, 0, 0], [248, 0, 2], [249, 0, 2]]
    }, 
    {
      "op": "Activation", 
      "name": "resnetv1b_layers3_relu4_fwd", 
      "attrs": {"act_type": "relu"}, 
      "inputs": [[250, 0, 0]]
    }, 
    {
      "op": "null", 
      "name": "resnetv1b_layers3_conv5_weight", 
      "attrs": {
        "__dtype__": "0", 
        "__lr_mult__": "1.0", 
        "__shape__": "(1024, 256, 1, 1)", 
        "__storage_type__": "0", 
        "__wd_mult__": "1.0"
      }, 
      "inputs": []
    }, 
    {
      "op": "Convolution", 
      "name": "resnetv1b_layers3_conv5_fwd", 
      "attrs": {
        "dilate": "(1, 1)", 
        "kernel": "(1, 1)", 
        "layout": "NCHW", 
        "no_bias": "True", 
        "num_filter": "1024", 
        "num_group": "1", 
        "pad": "(0, 0)", 
        "stride": "(1, 1)"
      }, 
      "inputs": [[251, 0, 0], [252, 0, 0]]
    }, 
    {
      "op": "null", 
      "name": "resnetv1b_layers3_batchnorm5_gamma", 
      "attrs": {
        "__dtype__": "0", 
        "__init__": "ones", 
        "__lr_mult__": "1.0", 
        "__shape__": "(1024,)", 
        "__storage_type__": "0", 
        "__wd_mult__": "1.0"
      }, 
      "inputs": []
    }, 
    {
      "op": "null", 
      "name": "resnetv1b_layers3_batchnorm5_beta", 
      "attrs": {
        "__dtype__": "0", 
        "__init__": "zeros", 
        "__lr_mult__": "1.0", 
        "__shape__": "(1024,)", 
        "__storage_type__": "0", 
        "__wd_mult__": "1.0"
      }, 
      "inputs": []
    }, 
    {
      "op": "null", 
      "name": "resnetv1b_layers3_batchnorm5_running_mean", 
      "attrs": {
        "__dtype__": "0", 
        "__init__": "zeros", 
        "__lr_mult__": "1.0", 
        "__shape__": "(1024,)", 
        "__storage_type__": "0", 
        "__wd_mult__": "1.0"
      }, 
      "inputs": []
    }, 
    {
      "op": "null", 
      "name": "resnetv1b_layers3_batchnorm5_running_var", 
      "attrs": {
        "__dtype__": "0", 
        "__init__": "ones", 
        "__lr_mult__": "1.0", 
        "__shape__": "(1024,)", 
        "__storage_type__": "0", 
        "__wd_mult__": "1.0"
      }, 
      "inputs": []
    }, 
    {
      "op": "BatchNorm", 
      "name": "resnetv1b_layers3_batchnorm5_fwd", 
      "attrs": {
        "axis": "1", 
        "eps": "1e-05", 
        "fix_gamma": "False", 
        "momentum": "0.9", 
        "use_global_stats": "True"
      }, 
      "inputs": [[253, 0, 0], [254, 0, 0], [255, 0, 0], [256, 0, 2], [257, 0, 2]]
    }, 
    {
      "op": "elemwise_add", 
      "name": "resnetv1b_layers3_bottleneckv1b1__plus0", 
      "inputs": [[258, 0, 0], [235, 0, 0]]
    }, 
    {
      "op": "Activation", 
      "name": "resnetv1b_layers3_relu5_fwd", 
      "attrs": {"act_type": "relu"}, 
      "inputs": [[259, 0, 0]]
    }, 
    {
      "op": "null", 
      "name": "resnetv1b_layers3_conv6_weight", 
      "attrs": {
        "__dtype__": "0", 
        "__lr_mult__": "1.0", 
        "__shape__": "(256, 1024, 1, 1)", 
        "__storage_type__": "0", 
        "__wd_mult__": "1.0"
      }, 
      "inputs": []
    }, 
    {
      "op": "Convolution", 
      "name": "resnetv1b_layers3_conv6_fwd", 
      "attrs": {
        "dilate": "(1, 1)", 
        "kernel": "(1, 1)", 
        "layout": "NCHW", 
        "no_bias": "True", 
        "num_filter": "256", 
        "num_group": "1", 
        "pad": "(0, 0)", 
        "stride": "(1, 1)"
      }, 
      "inputs": [[260, 0, 0], [261, 0, 0]]
    }, 
    {
      "op": "null", 
      "name": "resnetv1b_layers3_batchnorm6_gamma", 
      "attrs": {
        "__dtype__": "0", 
        "__init__": "ones", 
        "__lr_mult__": "1.0", 
        "__shape__": "(256,)", 
        "__storage_type__": "0", 
        "__wd_mult__": "1.0"
      }, 
      "inputs": []
    }, 
    {
      "op": "null", 
      "name": "resnetv1b_layers3_batchnorm6_beta", 
      "attrs": {
        "__dtype__": "0", 
        "__init__": "zeros", 
        "__lr_mult__": "1.0", 
        "__shape__": "(256,)", 
        "__storage_type__": "0", 
        "__wd_mult__": "1.0"
      }, 
      "inputs": []
    }, 
    {
      "op": "null", 
      "name": "resnetv1b_layers3_batchnorm6_running_mean", 
      "attrs": {
        "__dtype__": "0", 
        "__init__": "zeros", 
        "__lr_mult__": "1.0", 
        "__shape__": "(256,)", 
        "__storage_type__": "0", 
        "__wd_mult__": "1.0"
      }, 
      "inputs": []
    }, 
    {
      "op": "null", 
      "name": "resnetv1b_layers3_batchnorm6_running_var", 
      "attrs": {
        "__dtype__": "0", 
        "__init__": "ones", 
        "__lr_mult__": "1.0", 
        "__shape__": "(256,)", 
        "__storage_type__": "0", 
        "__wd_mult__": "1.0"
      }, 
      "inputs": []
    }, 
    {
      "op": "BatchNorm", 
      "name": "resnetv1b_layers3_batchnorm6_fwd", 
      "attrs": {
        "axis": "1", 
        "eps": "1e-05", 
        "fix_gamma": "False", 
        "momentum": "0.9", 
        "use_global_stats": "True"
      }, 
      "inputs": [[262, 0, 0], [263, 0, 0], [264, 0, 0], [265, 0, 2], [266, 0, 2]]
    }, 
    {
      "op": "Activation", 
      "name": "resnetv1b_layers3_relu6_fwd", 
      "attrs": {"act_type": "relu"}, 
      "inputs": [[267, 0, 0]]
    }, 
    {
      "op": "null", 
      "name": "resnetv1b_layers3_conv7_weight", 
      "attrs": {
        "__dtype__": "0", 
        "__lr_mult__": "1.0", 
        "__shape__": "(256, 256, 3, 3)", 
        "__storage_type__": "0", 
        "__wd_mult__": "1.0"
      }, 
      "inputs": []
    }, 
    {
      "op": "Convolution", 
      "name": "resnetv1b_layers3_conv7_fwd", 
      "attrs": {
        "dilate": "(1, 1)", 
        "kernel": "(3, 3)", 
        "layout": "NCHW", 
        "no_bias": "True", 
        "num_filter": "256", 
        "num_group": "1", 
        "pad": "(1, 1)", 
        "stride": "(1, 1)"
      }, 
      "inputs": [[268, 0, 0], [269, 0, 0]]
    }, 
    {
      "op": "null", 
      "name": "resnetv1b_layers3_batchnorm7_gamma", 
      "attrs": {
        "__dtype__": "0", 
        "__init__": "ones", 
        "__lr_mult__": "1.0", 
        "__shape__": "(256,)", 
        "__storage_type__": "0", 
        "__wd_mult__": "1.0"
      }, 
      "inputs": []
    }, 
    {
      "op": "null", 
      "name": "resnetv1b_layers3_batchnorm7_beta", 
      "attrs": {
        "__dtype__": "0", 
        "__init__": "zeros", 
        "__lr_mult__": "1.0", 
        "__shape__": "(256,)", 
        "__storage_type__": "0", 
        "__wd_mult__": "1.0"
      }, 
      "inputs": []
    }, 
    {
      "op": "null", 
      "name": "resnetv1b_layers3_batchnorm7_running_mean", 
      "attrs": {
        "__dtype__": "0", 
        "__init__": "zeros", 
        "__lr_mult__": "1.0", 
        "__shape__": "(256,)", 
        "__storage_type__": "0", 
        "__wd_mult__": "1.0"
      }, 
      "inputs": []
    }, 
    {
      "op": "null", 
      "name": "resnetv1b_layers3_batchnorm7_running_var", 
      "attrs": {
        "__dtype__": "0", 
        "__init__": "ones", 
        "__lr_mult__": "1.0", 
        "__shape__": "(256,)", 
        "__storage_type__": "0", 
        "__wd_mult__": "1.0"
      }, 
      "inputs": []
    }, 
    {
      "op": "BatchNorm", 
      "name": "resnetv1b_layers3_batchnorm7_fwd", 
      "attrs": {
        "axis": "1", 
        "eps": "1e-05", 
        "fix_gamma": "False", 
        "momentum": "0.9", 
        "use_global_stats": "True"
      }, 
      "inputs": [[270, 0, 0], [271, 0, 0], [272, 0, 0], [273, 0, 2], [274, 0, 2]]
    }, 
    {
      "op": "Activation", 
      "name": "resnetv1b_layers3_relu7_fwd", 
      "attrs": {"act_type": "relu"}, 
      "inputs": [[275, 0, 0]]
    }, 
    {
      "op": "null", 
      "name": "resnetv1b_layers3_conv8_weight", 
      "attrs": {
        "__dtype__": "0", 
        "__lr_mult__": "1.0", 
        "__shape__": "(1024, 256, 1, 1)", 
        "__storage_type__": "0", 
        "__wd_mult__": "1.0"
      }, 
      "inputs": []
    }, 
    {
      "op": "Convolution", 
      "name": "resnetv1b_layers3_conv8_fwd", 
      "attrs": {
        "dilate": "(1, 1)", 
        "kernel": "(1, 1)", 
        "layout": "NCHW", 
        "no_bias": "True", 
        "num_filter": "1024", 
        "num_group": "1", 
        "pad": "(0, 0)", 
        "stride": "(1, 1)"
      }, 
      "inputs": [[276, 0, 0], [277, 0, 0]]
    }, 
    {
      "op": "null", 
      "name": "resnetv1b_layers3_batchnorm8_gamma", 
      "attrs": {
        "__dtype__": "0", 
        "__init__": "ones", 
        "__lr_mult__": "1.0", 
        "__shape__": "(1024,)", 
        "__storage_type__": "0", 
        "__wd_mult__": "1.0"
      }, 
      "inputs": []
    }, 
    {
      "op": "null", 
      "name": "resnetv1b_layers3_batchnorm8_beta", 
      "attrs": {
        "__dtype__": "0", 
        "__init__": "zeros", 
        "__lr_mult__": "1.0", 
        "__shape__": "(1024,)", 
        "__storage_type__": "0", 
        "__wd_mult__": "1.0"
      }, 
      "inputs": []
    }, 
    {
      "op": "null", 
      "name": "resnetv1b_layers3_batchnorm8_running_mean", 
      "attrs": {
        "__dtype__": "0", 
        "__init__": "zeros", 
        "__lr_mult__": "1.0", 
        "__shape__": "(1024,)", 
        "__storage_type__": "0", 
        "__wd_mult__": "1.0"
      }, 
      "inputs": []
    }, 
    {
      "op": "null", 
      "name": "resnetv1b_layers3_batchnorm8_running_var", 
      "attrs": {
        "__dtype__": "0", 
        "__init__": "ones", 
        "__lr_mult__": "1.0", 
        "__shape__": "(1024,)", 
        "__storage_type__": "0", 
        "__wd_mult__": "1.0"
      }, 
      "inputs": []
    }, 
    {
      "op": "BatchNorm", 
      "name": "resnetv1b_layers3_batchnorm8_fwd", 
      "attrs": {
        "axis": "1", 
        "eps": "1e-05", 
        "fix_gamma": "False", 
        "momentum": "0.9", 
        "use_global_stats": "True"
      }, 
      "inputs": [[278, 0, 0], [279, 0, 0], [280, 0, 0], [281, 0, 2], [282, 0, 2]]
    }, 
    {
      "op": "elemwise_add", 
      "name": "resnetv1b_layers3_bottleneckv1b2__plus0", 
      "inputs": [[283, 0, 0], [260, 0, 0]]
    }, 
    {
      "op": "Activation", 
      "name": "resnetv1b_layers3_relu8_fwd", 
      "attrs": {"act_type": "relu"}, 
      "inputs": [[284, 0, 0]]
    }, 
    {
      "op": "null", 
      "name": "resnetv1b_layers3_conv9_weight", 
      "attrs": {
        "__dtype__": "0", 
        "__lr_mult__": "1.0", 
        "__shape__": "(256, 1024, 1, 1)", 
        "__storage_type__": "0", 
        "__wd_mult__": "1.0"
      }, 
      "inputs": []
    }, 
    {
      "op": "Convolution", 
      "name": "resnetv1b_layers3_conv9_fwd", 
      "attrs": {
        "dilate": "(1, 1)", 
        "kernel": "(1, 1)", 
        "layout": "NCHW", 
        "no_bias": "True", 
        "num_filter": "256", 
        "num_group": "1", 
        "pad": "(0, 0)", 
        "stride": "(1, 1)"
      }, 
      "inputs": [[285, 0, 0], [286, 0, 0]]
    }, 
    {
      "op": "null", 
      "name": "resnetv1b_layers3_batchnorm9_gamma", 
      "attrs": {
        "__dtype__": "0", 
        "__init__": "ones", 
        "__lr_mult__": "1.0", 
        "__shape__": "(256,)", 
        "__storage_type__": "0", 
        "__wd_mult__": "1.0"
      }, 
      "inputs": []
    }, 
    {
      "op": "null", 
      "name": "resnetv1b_layers3_batchnorm9_beta", 
      "attrs": {
        "__dtype__": "0", 
        "__init__": "zeros", 
        "__lr_mult__": "1.0", 
        "__shape__": "(256,)", 
        "__storage_type__": "0", 
        "__wd_mult__": "1.0"
      }, 
      "inputs": []
    }, 
    {
      "op": "null", 
      "name": "resnetv1b_layers3_batchnorm9_running_mean", 
      "attrs": {
        "__dtype__": "0", 
        "__init__": "zeros", 
        "__lr_mult__": "1.0", 
        "__shape__": "(256,)", 
        "__storage_type__": "0", 
        "__wd_mult__": "1.0"
      }, 
      "inputs": []
    }, 
    {
      "op": "null", 
      "name": "resnetv1b_layers3_batchnorm9_running_var", 
      "attrs": {
        "__dtype__": "0", 
        "__init__": "ones", 
        "__lr_mult__": "1.0", 
        "__shape__": "(256,)", 
        "__storage_type__": "0", 
        "__wd_mult__": "1.0"
      }, 
      "inputs": []
    }, 
    {
      "op": "BatchNorm", 
      "name": "resnetv1b_layers3_batchnorm9_fwd", 
      "attrs": {
        "axis": "1", 
        "eps": "1e-05", 
        "fix_gamma": "False", 
        "momentum": "0.9", 
        "use_global_stats": "True"
      }, 
      "inputs": [[287, 0, 0], [288, 0, 0], [289, 0, 0], [290, 0, 2], [291, 0, 2]]
    }, 
    {
      "op": "Activation", 
      "name": "resnetv1b_layers3_relu9_fwd", 
      "attrs": {"act_type": "relu"}, 
      "inputs": [[292, 0, 0]]
    }, 
    {
      "op": "null", 
      "name": "resnetv1b_layers3_conv10_weight", 
      "attrs": {
        "__dtype__": "0", 
        "__lr_mult__": "1.0", 
        "__shape__": "(256, 256, 3, 3)", 
        "__storage_type__": "0", 
        "__wd_mult__": "1.0"
      }, 
      "inputs": []
    }, 
    {
      "op": "Convolution", 
      "name": "resnetv1b_layers3_conv10_fwd", 
      "attrs": {
        "dilate": "(1, 1)", 
        "kernel": "(3, 3)", 
        "layout": "NCHW", 
        "no_bias": "True", 
        "num_filter": "256", 
        "num_group": "1", 
        "pad": "(1, 1)", 
        "stride": "(1, 1)"
      }, 
      "inputs": [[293, 0, 0], [294, 0, 0]]
    }, 
    {
      "op": "null", 
      "name": "resnetv1b_layers3_batchnorm10_gamma", 
      "attrs": {
        "__dtype__": "0", 
        "__init__": "ones", 
        "__lr_mult__": "1.0", 
        "__shape__": "(256,)", 
        "__storage_type__": "0", 
        "__wd_mult__": "1.0"
      }, 
      "inputs": []
    }, 
    {
      "op": "null", 
      "name": "resnetv1b_layers3_batchnorm10_beta", 
      "attrs": {
        "__dtype__": "0", 
        "__init__": "zeros", 
        "__lr_mult__": "1.0", 
        "__shape__": "(256,)", 
        "__storage_type__": "0", 
        "__wd_mult__": "1.0"
      }, 
      "inputs": []
    }, 
    {
      "op": "null", 
      "name": "resnetv1b_layers3_batchnorm10_running_mean", 
      "attrs": {
        "__dtype__": "0", 
        "__init__": "zeros", 
        "__lr_mult__": "1.0", 
        "__shape__": "(256,)", 
        "__storage_type__": "0", 
        "__wd_mult__": "1.0"
      }, 
      "inputs": []
    }, 
    {
      "op": "null", 
      "name": "resnetv1b_layers3_batchnorm10_running_var", 
      "attrs": {
        "__dtype__": "0", 
        "__init__": "ones", 
        "__lr_mult__": "1.0", 
        "__shape__": "(256,)", 
        "__storage_type__": "0", 
        "__wd_mult__": "1.0"
      }, 
      "inputs": []
    }, 
    {
      "op": "BatchNorm", 
      "name": "resnetv1b_layers3_batchnorm10_fwd", 
      "attrs": {
        "axis": "1", 
        "eps": "1e-05", 
        "fix_gamma": "False", 
        "momentum": "0.9", 
        "use_global_stats": "True"
      }, 
      "inputs": [[295, 0, 0], [296, 0, 0], [297, 0, 0], [298, 0, 2], [299, 0, 2]]
    }, 
    {
      "op": "Activation", 
      "name": "resnetv1b_layers3_relu10_fwd", 
      "attrs": {"act_type": "relu"}, 
      "inputs": [[300, 0, 0]]
    }, 
    {
      "op": "null", 
      "name": "resnetv1b_layers3_conv11_weight", 
      "attrs": {
        "__dtype__": "0", 
        "__lr_mult__": "1.0", 
        "__shape__": "(1024, 256, 1, 1)", 
        "__storage_type__": "0", 
        "__wd_mult__": "1.0"
      }, 
      "inputs": []
    }, 
    {
      "op": "Convolution", 
      "name": "resnetv1b_layers3_conv11_fwd", 
      "attrs": {
        "dilate": "(1, 1)", 
        "kernel": "(1, 1)", 
        "layout": "NCHW", 
        "no_bias": "True", 
        "num_filter": "1024", 
        "num_group": "1", 
        "pad": "(0, 0)", 
        "stride": "(1, 1)"
      }, 
      "inputs": [[301, 0, 0], [302, 0, 0]]
    }, 
    {
      "op": "null", 
      "name": "resnetv1b_layers3_batchnorm11_gamma", 
      "attrs": {
        "__dtype__": "0", 
        "__init__": "ones", 
        "__lr_mult__": "1.0", 
        "__shape__": "(1024,)", 
        "__storage_type__": "0", 
        "__wd_mult__": "1.0"
      }, 
      "inputs": []
    }, 
    {
      "op": "null", 
      "name": "resnetv1b_layers3_batchnorm11_beta", 
      "attrs": {
        "__dtype__": "0", 
        "__init__": "zeros", 
        "__lr_mult__": "1.0", 
        "__shape__": "(1024,)", 
        "__storage_type__": "0", 
        "__wd_mult__": "1.0"
      }, 
      "inputs": []
    }, 
    {
      "op": "null", 
      "name": "resnetv1b_layers3_batchnorm11_running_mean", 
      "attrs": {
        "__dtype__": "0", 
        "__init__": "zeros", 
        "__lr_mult__": "1.0", 
        "__shape__": "(1024,)", 
        "__storage_type__": "0", 
        "__wd_mult__": "1.0"
      }, 
      "inputs": []
    }, 
    {
      "op": "null", 
      "name": "resnetv1b_layers3_batchnorm11_running_var", 
      "attrs": {
        "__dtype__": "0", 
        "__init__": "ones", 
        "__lr_mult__": "1.0", 
        "__shape__": "(1024,)", 
        "__storage_type__": "0", 
        "__wd_mult__": "1.0"
      }, 
      "inputs": []
    }, 
    {
      "op": "BatchNorm", 
      "name": "resnetv1b_layers3_batchnorm11_fwd", 
      "attrs": {
        "axis": "1", 
        "eps": "1e-05", 
        "fix_gamma": "False", 
        "momentum": "0.9", 
        "use_global_stats": "True"
      }, 
      "inputs": [[303, 0, 0], [304, 0, 0], [305, 0, 0], [306, 0, 2], [307, 0, 2]]
    }, 
    {
      "op": "elemwise_add", 
      "name": "resnetv1b_layers3_bottleneckv1b3__plus0", 
      "inputs": [[308, 0, 0], [285, 0, 0]]
    }, 
    {
      "op": "Activation", 
      "name": "resnetv1b_layers3_relu11_fwd", 
      "attrs": {"act_type": "relu"}, 
      "inputs": [[309, 0, 0]]
    }, 
    {
      "op": "null", 
      "name": "resnetv1b_layers3_conv12_weight", 
      "attrs": {
        "__dtype__": "0", 
        "__lr_mult__": "1.0", 
        "__shape__": "(256, 1024, 1, 1)", 
        "__storage_type__": "0", 
        "__wd_mult__": "1.0"
      }, 
      "inputs": []
    }, 
    {
      "op": "Convolution", 
      "name": "resnetv1b_layers3_conv12_fwd", 
      "attrs": {
        "dilate": "(1, 1)", 
        "kernel": "(1, 1)", 
        "layout": "NCHW", 
        "no_bias": "True", 
        "num_filter": "256", 
        "num_group": "1", 
        "pad": "(0, 0)", 
        "stride": "(1, 1)"
      }, 
      "inputs": [[310, 0, 0], [311, 0, 0]]
    }, 
    {
      "op": "null", 
      "name": "resnetv1b_layers3_batchnorm12_gamma", 
      "attrs": {
        "__dtype__": "0", 
        "__init__": "ones", 
        "__lr_mult__": "1.0", 
        "__shape__": "(256,)", 
        "__storage_type__": "0", 
        "__wd_mult__": "1.0"
      }, 
      "inputs": []
    }, 
    {
      "op": "null", 
      "name": "resnetv1b_layers3_batchnorm12_beta", 
      "attrs": {
        "__dtype__": "0", 
        "__init__": "zeros", 
        "__lr_mult__": "1.0", 
        "__shape__": "(256,)", 
        "__storage_type__": "0", 
        "__wd_mult__": "1.0"
      }, 
      "inputs": []
    }, 
    {
      "op": "null", 
      "name": "resnetv1b_layers3_batchnorm12_running_mean", 
      "attrs": {
        "__dtype__": "0", 
        "__init__": "zeros", 
        "__lr_mult__": "1.0", 
        "__shape__": "(256,)", 
        "__storage_type__": "0", 
        "__wd_mult__": "1.0"
      }, 
      "inputs": []
    }, 
    {
      "op": "null", 
      "name": "resnetv1b_layers3_batchnorm12_running_var", 
      "attrs": {
        "__dtype__": "0", 
        "__init__": "ones", 
        "__lr_mult__": "1.0", 
        "__shape__": "(256,)", 
        "__storage_type__": "0", 
        "__wd_mult__": "1.0"
      }, 
      "inputs": []
    }, 
    {
      "op": "BatchNorm", 
      "name": "resnetv1b_layers3_batchnorm12_fwd", 
      "attrs": {
        "axis": "1", 
        "eps": "1e-05", 
        "fix_gamma": "False", 
        "momentum": "0.9", 
        "use_global_stats": "True"
      }, 
      "inputs": [[312, 0, 0], [313, 0, 0], [314, 0, 0], [315, 0, 2], [316, 0, 2]]
    }, 
    {
      "op": "Activation", 
      "name": "resnetv1b_layers3_relu12_fwd", 
      "attrs": {"act_type": "relu"}, 
      "inputs": [[317, 0, 0]]
    }, 
    {
      "op": "null", 
      "name": "resnetv1b_layers3_conv13_weight", 
      "attrs": {
        "__dtype__": "0", 
        "__lr_mult__": "1.0", 
        "__shape__": "(256, 256, 3, 3)", 
        "__storage_type__": "0", 
        "__wd_mult__": "1.0"
      }, 
      "inputs": []
    }, 
    {
      "op": "Convolution", 
      "name": "resnetv1b_layers3_conv13_fwd", 
      "attrs": {
        "dilate": "(1, 1)", 
        "kernel": "(3, 3)", 
        "layout": "NCHW", 
        "no_bias": "True", 
        "num_filter": "256", 
        "num_group": "1", 
        "pad": "(1, 1)", 
        "stride": "(1, 1)"
      }, 
      "inputs": [[318, 0, 0], [319, 0, 0]]
    }, 
    {
      "op": "null", 
      "name": "resnetv1b_layers3_batchnorm13_gamma", 
      "attrs": {
        "__dtype__": "0", 
        "__init__": "ones", 
        "__lr_mult__": "1.0", 
        "__shape__": "(256,)", 
        "__storage_type__": "0", 
        "__wd_mult__": "1.0"
      }, 
      "inputs": []
    }, 
    {
      "op": "null", 
      "name": "resnetv1b_layers3_batchnorm13_beta", 
      "attrs": {
        "__dtype__": "0", 
        "__init__": "zeros", 
        "__lr_mult__": "1.0", 
        "__shape__": "(256,)", 
        "__storage_type__": "0", 
        "__wd_mult__": "1.0"
      }, 
      "inputs": []
    }, 
    {
      "op": "null", 
      "name": "resnetv1b_layers3_batchnorm13_running_mean", 
      "attrs": {
        "__dtype__": "0", 
        "__init__": "zeros", 
        "__lr_mult__": "1.0", 
        "__shape__": "(256,)", 
        "__storage_type__": "0", 
        "__wd_mult__": "1.0"
      }, 
      "inputs": []
    }, 
    {
      "op": "null", 
      "name": "resnetv1b_layers3_batchnorm13_running_var", 
      "attrs": {
        "__dtype__": "0", 
        "__init__": "ones", 
        "__lr_mult__": "1.0", 
        "__shape__": "(256,)", 
        "__storage_type__": "0", 
        "__wd_mult__": "1.0"
      }, 
      "inputs": []
    }, 
    {
      "op": "BatchNorm", 
      "name": "resnetv1b_layers3_batchnorm13_fwd", 
      "attrs": {
        "axis": "1", 
        "eps": "1e-05", 
        "fix_gamma": "False", 
        "momentum": "0.9", 
        "use_global_stats": "True"
      }, 
      "inputs": [[320, 0, 0], [321, 0, 0], [322, 0, 0], [323, 0, 2], [324, 0, 2]]
    }, 
    {
      "op": "Activation", 
      "name": "resnetv1b_layers3_relu13_fwd", 
      "attrs": {"act_type": "relu"}, 
      "inputs": [[325, 0, 0]]
    }, 
    {
      "op": "null", 
      "name": "resnetv1b_layers3_conv14_weight", 
      "attrs": {
        "__dtype__": "0", 
        "__lr_mult__": "1.0", 
        "__shape__": "(1024, 256, 1, 1)", 
        "__storage_type__": "0", 
        "__wd_mult__": "1.0"
      }, 
      "inputs": []
    }, 
    {
      "op": "Convolution", 
      "name": "resnetv1b_layers3_conv14_fwd", 
      "attrs": {
        "dilate": "(1, 1)", 
        "kernel": "(1, 1)", 
        "layout": "NCHW", 
        "no_bias": "True", 
        "num_filter": "1024", 
        "num_group": "1", 
        "pad": "(0, 0)", 
        "stride": "(1, 1)"
      }, 
      "inputs": [[326, 0, 0], [327, 0, 0]]
    }, 
    {
      "op": "null", 
      "name": "resnetv1b_layers3_batchnorm14_gamma", 
      "attrs": {
        "__dtype__": "0", 
        "__init__": "ones", 
        "__lr_mult__": "1.0", 
        "__shape__": "(1024,)", 
        "__storage_type__": "0", 
        "__wd_mult__": "1.0"
      }, 
      "inputs": []
    }, 
    {
      "op": "null", 
      "name": "resnetv1b_layers3_batchnorm14_beta", 
      "attrs": {
        "__dtype__": "0", 
        "__init__": "zeros", 
        "__lr_mult__": "1.0", 
        "__shape__": "(1024,)", 
        "__storage_type__": "0", 
        "__wd_mult__": "1.0"
      }, 
      "inputs": []
    }, 
    {
      "op": "null", 
      "name": "resnetv1b_layers3_batchnorm14_running_mean", 
      "attrs": {
        "__dtype__": "0", 
        "__init__": "zeros", 
        "__lr_mult__": "1.0", 
        "__shape__": "(1024,)", 
        "__storage_type__": "0", 
        "__wd_mult__": "1.0"
      }, 
      "inputs": []
    }, 
    {
      "op": "null", 
      "name": "resnetv1b_layers3_batchnorm14_running_var", 
      "attrs": {
        "__dtype__": "0", 
        "__init__": "ones", 
        "__lr_mult__": "1.0", 
        "__shape__": "(1024,)", 
        "__storage_type__": "0", 
        "__wd_mult__": "1.0"
      }, 
      "inputs": []
    }, 
    {
      "op": "BatchNorm", 
      "name": "resnetv1b_layers3_batchnorm14_fwd", 
      "attrs": {
        "axis": "1", 
        "eps": "1e-05", 
        "fix_gamma": "False", 
        "momentum": "0.9", 
        "use_global_stats": "True"
      }, 
      "inputs": [[328, 0, 0], [329, 0, 0], [330, 0, 0], [331, 0, 2], [332, 0, 2]]
    }, 
    {
      "op": "elemwise_add", 
      "name": "resnetv1b_layers3_bottleneckv1b4__plus0", 
      "inputs": [[333, 0, 0], [310, 0, 0]]
    }, 
    {
      "op": "Activation", 
      "name": "resnetv1b_layers3_relu14_fwd", 
      "attrs": {"act_type": "relu"}, 
      "inputs": [[334, 0, 0]]
    }, 
    {
      "op": "null", 
      "name": "resnetv1b_layers3_conv15_weight", 
      "attrs": {
        "__dtype__": "0", 
        "__lr_mult__": "1.0", 
        "__shape__": "(256, 1024, 1, 1)", 
        "__storage_type__": "0", 
        "__wd_mult__": "1.0"
      }, 
      "inputs": []
    }, 
    {
      "op": "Convolution", 
      "name": "resnetv1b_layers3_conv15_fwd", 
      "attrs": {
        "dilate": "(1, 1)", 
        "kernel": "(1, 1)", 
        "layout": "NCHW", 
        "no_bias": "True", 
        "num_filter": "256", 
        "num_group": "1", 
        "pad": "(0, 0)", 
        "stride": "(1, 1)"
      }, 
      "inputs": [[335, 0, 0], [336, 0, 0]]
    }, 
    {
      "op": "null", 
      "name": "resnetv1b_layers3_batchnorm15_gamma", 
      "attrs": {
        "__dtype__": "0", 
        "__init__": "ones", 
        "__lr_mult__": "1.0", 
        "__shape__": "(256,)", 
        "__storage_type__": "0", 
        "__wd_mult__": "1.0"
      }, 
      "inputs": []
    }, 
    {
      "op": "null", 
      "name": "resnetv1b_layers3_batchnorm15_beta", 
      "attrs": {
        "__dtype__": "0", 
        "__init__": "zeros", 
        "__lr_mult__": "1.0", 
        "__shape__": "(256,)", 
        "__storage_type__": "0", 
        "__wd_mult__": "1.0"
      }, 
      "inputs": []
    }, 
    {
      "op": "null", 
      "name": "resnetv1b_layers3_batchnorm15_running_mean", 
      "attrs": {
        "__dtype__": "0", 
        "__init__": "zeros", 
        "__lr_mult__": "1.0", 
        "__shape__": "(256,)", 
        "__storage_type__": "0", 
        "__wd_mult__": "1.0"
      }, 
      "inputs": []
    }, 
    {
      "op": "null", 
      "name": "resnetv1b_layers3_batchnorm15_running_var", 
      "attrs": {
        "__dtype__": "0", 
        "__init__": "ones", 
        "__lr_mult__": "1.0", 
        "__shape__": "(256,)", 
        "__storage_type__": "0", 
        "__wd_mult__": "1.0"
      }, 
      "inputs": []
    }, 
    {
      "op": "BatchNorm", 
      "name": "resnetv1b_layers3_batchnorm15_fwd", 
      "attrs": {
        "axis": "1", 
        "eps": "1e-05", 
        "fix_gamma": "False", 
        "momentum": "0.9", 
        "use_global_stats": "True"
      }, 
      "inputs": [[337, 0, 0], [338, 0, 0], [339, 0, 0], [340, 0, 2], [341, 0, 2]]
    }, 
    {
      "op": "Activation", 
      "name": "resnetv1b_layers3_relu15_fwd", 
      "attrs": {"act_type": "relu"}, 
      "inputs": [[342, 0, 0]]
    }, 
    {
      "op": "null", 
      "name": "resnetv1b_layers3_conv16_weight", 
      "attrs": {
        "__dtype__": "0", 
        "__lr_mult__": "1.0", 
        "__shape__": "(256, 256, 3, 3)", 
        "__storage_type__": "0", 
        "__wd_mult__": "1.0"
      }, 
      "inputs": []
    }, 
    {
      "op": "Convolution", 
      "name": "resnetv1b_layers3_conv16_fwd", 
      "attrs": {
        "dilate": "(1, 1)", 
        "kernel": "(3, 3)", 
        "layout": "NCHW", 
        "no_bias": "True", 
        "num_filter": "256", 
        "num_group": "1", 
        "pad": "(1, 1)", 
        "stride": "(1, 1)"
      }, 
      "inputs": [[343, 0, 0], [344, 0, 0]]
    }, 
    {
      "op": "null", 
      "name": "resnetv1b_layers3_batchnorm16_gamma", 
      "attrs": {
        "__dtype__": "0", 
        "__init__": "ones", 
        "__lr_mult__": "1.0", 
        "__shape__": "(256,)", 
        "__storage_type__": "0", 
        "__wd_mult__": "1.0"
      }, 
      "inputs": []
    }, 
    {
      "op": "null", 
      "name": "resnetv1b_layers3_batchnorm16_beta", 
      "attrs": {
        "__dtype__": "0", 
        "__init__": "zeros", 
        "__lr_mult__": "1.0", 
        "__shape__": "(256,)", 
        "__storage_type__": "0", 
        "__wd_mult__": "1.0"
      }, 
      "inputs": []
    }, 
    {
      "op": "null", 
      "name": "resnetv1b_layers3_batchnorm16_running_mean", 
      "attrs": {
        "__dtype__": "0", 
        "__init__": "zeros", 
        "__lr_mult__": "1.0", 
        "__shape__": "(256,)", 
        "__storage_type__": "0", 
        "__wd_mult__": "1.0"
      }, 
      "inputs": []
    }, 
    {
      "op": "null", 
      "name": "resnetv1b_layers3_batchnorm16_running_var", 
      "attrs": {
        "__dtype__": "0", 
        "__init__": "ones", 
        "__lr_mult__": "1.0", 
        "__shape__": "(256,)", 
        "__storage_type__": "0", 
        "__wd_mult__": "1.0"
      }, 
      "inputs": []
    }, 
    {
      "op": "BatchNorm", 
      "name": "resnetv1b_layers3_batchnorm16_fwd", 
      "attrs": {
        "axis": "1", 
        "eps": "1e-05", 
        "fix_gamma": "False", 
        "momentum": "0.9", 
        "use_global_stats": "True"
      }, 
      "inputs": [[345, 0, 0], [346, 0, 0], [347, 0, 0], [348, 0, 2], [349, 0, 2]]
    }, 
    {
      "op": "Activation", 
      "name": "resnetv1b_layers3_relu16_fwd", 
      "attrs": {"act_type": "relu"}, 
      "inputs": [[350, 0, 0]]
    }, 
    {
      "op": "null", 
      "name": "resnetv1b_layers3_conv17_weight", 
      "attrs": {
        "__dtype__": "0", 
        "__lr_mult__": "1.0", 
        "__shape__": "(1024, 256, 1, 1)", 
        "__storage_type__": "0", 
        "__wd_mult__": "1.0"
      }, 
      "inputs": []
    }, 
    {
      "op": "Convolution", 
      "name": "resnetv1b_layers3_conv17_fwd", 
      "attrs": {
        "dilate": "(1, 1)", 
        "kernel": "(1, 1)", 
        "layout": "NCHW", 
        "no_bias": "True", 
        "num_filter": "1024", 
        "num_group": "1", 
        "pad": "(0, 0)", 
        "stride": "(1, 1)"
      }, 
      "inputs": [[351, 0, 0], [352, 0, 0]]
    }, 
    {
      "op": "null", 
      "name": "resnetv1b_layers3_batchnorm17_gamma", 
      "attrs": {
        "__dtype__": "0", 
        "__init__": "ones", 
        "__lr_mult__": "1.0", 
        "__shape__": "(1024,)", 
        "__storage_type__": "0", 
        "__wd_mult__": "1.0"
      }, 
      "inputs": []
    }, 
    {
      "op": "null", 
      "name": "resnetv1b_layers3_batchnorm17_beta", 
      "attrs": {
        "__dtype__": "0", 
        "__init__": "zeros", 
        "__lr_mult__": "1.0", 
        "__shape__": "(1024,)", 
        "__storage_type__": "0", 
        "__wd_mult__": "1.0"
      }, 
      "inputs": []
    }, 
    {
      "op": "null", 
      "name": "resnetv1b_layers3_batchnorm17_running_mean", 
      "attrs": {
        "__dtype__": "0", 
        "__init__": "zeros", 
        "__lr_mult__": "1.0", 
        "__shape__": "(1024,)", 
        "__storage_type__": "0", 
        "__wd_mult__": "1.0"
      }, 
      "inputs": []
    }, 
    {
      "op": "null", 
      "name": "resnetv1b_layers3_batchnorm17_running_var", 
      "attrs": {
        "__dtype__": "0", 
        "__init__": "ones", 
        "__lr_mult__": "1.0", 
        "__shape__": "(1024,)", 
        "__storage_type__": "0", 
        "__wd_mult__": "1.0"
      }, 
      "inputs": []
    }, 
    {
      "op": "BatchNorm", 
      "name": "resnetv1b_layers3_batchnorm17_fwd", 
      "attrs": {
        "axis": "1", 
        "eps": "1e-05", 
        "fix_gamma": "False", 
        "momentum": "0.9", 
        "use_global_stats": "True"
      }, 
      "inputs": [[353, 0, 0], [354, 0, 0], [355, 0, 0], [356, 0, 2], [357, 0, 2]]
    }, 
    {
      "op": "elemwise_add", 
      "name": "resnetv1b_layers3_bottleneckv1b5__plus0", 
      "inputs": [[358, 0, 0], [335, 0, 0]]
    }, 
    {
      "op": "Activation", 
      "name": "resnetv1b_layers3_relu17_fwd", 
      "attrs": {"act_type": "relu"}, 
      "inputs": [[359, 0, 0]]
    }, 
    {
      "op": "_arange", 
      "name": "maskrcnn1__arange0", 
      "attrs": {
        "dtype": "float32", 
        "infer_range": "False", 
        "repeat": "1", 
        "start": "0", 
        "step": "1.0", 
        "stop": "1"
      }, 
      "inputs": []
    }, 
    {
      "op": "repeat", 
      "name": "maskrcnn1_repeat0", 
      "attrs": {"repeats": "1000"}, 
      "inputs": [[361, 0, 0]]
    }, 
    {
      "op": "Reshape", 
      "name": "maskrcnn1_reshape0", 
      "attrs": {"shape": "(-1, 1)"}, 
      "inputs": [[362, 0, 0]]
    }, 
    {
      "op": "null", 
      "name": "maskrcnn1_rpn0_conv0_weight", 
      "attrs": {
        "__dtype__": "0", 
        "__init__": "[\"normal\", {\"sigma\": 0.01}]", 
        "__lr_mult__": "1.0", 
        "__shape__": "(1024, 1024, 3, 3)", 
        "__storage_type__": "0", 
        "__wd_mult__": "1.0"
      }, 
      "inputs": []
    }, 
    {
      "op": "null", 
      "name": "maskrcnn1_rpn0_conv0_bias", 
      "attrs": {
        "__dtype__": "0", 
        "__init__": "zeros", 
        "__lr_mult__": "1.0", 
        "__shape__": "(1024,)", 
        "__storage_type__": "0", 
        "__wd_mult__": "1.0"
      }, 
      "inputs": []
    }, 
    {
      "op": "Convolution", 
      "name": "maskrcnn1_rpn0_conv0_fwd", 
      "attrs": {
        "dilate": "(1, 1)", 
        "kernel": "(3, 3)", 
        "layout": "NCHW", 
        "no_bias": "False", 
        "num_filter": "1024", 
        "num_group": "1", 
        "pad": "(1, 1)", 
        "stride": "(1, 1)"
      }, 
      "inputs": [[360, 0, 0], [364, 0, 0], [365, 0, 0]]
    }, 
    {
      "op": "Activation", 
      "name": "maskrcnn1_rpn0_relu0_fwd", 
      "attrs": {"act_type": "relu"}, 
      "inputs": [[366, 0, 0]]
    }, 
    {
      "op": "null", 
      "name": "maskrcnn1_rpn0_conv2_weight", 
      "attrs": {
        "__dtype__": "0", 
        "__init__": "[\"normal\", {\"sigma\": 0.01}]", 
        "__lr_mult__": "1.0", 
        "__shape__": "(60, 1024, 1, 1)", 
        "__storage_type__": "0", 
        "__wd_mult__": "1.0"
      }, 
      "inputs": []
    }, 
    {
      "op": "null", 
      "name": "maskrcnn1_rpn0_conv2_bias", 
      "attrs": {
        "__dtype__": "0", 
        "__init__": "zeros", 
        "__lr_mult__": "1.0", 
        "__shape__": "(60,)", 
        "__storage_type__": "0", 
        "__wd_mult__": "1.0"
      }, 
      "inputs": []
    }, 
    {
      "op": "Convolution", 
      "name": "maskrcnn1_rpn0_conv2_fwd", 
      "attrs": {
        "dilate": "(1, 1)", 
        "kernel": "(1, 1)", 
        "layout": "NCHW", 
        "no_bias": "False", 
        "num_filter": "60", 
        "num_group": "1", 
        "pad": "(0, 0)", 
        "stride": "(1, 1)"
      }, 
      "inputs": [[367, 0, 0], [368, 0, 0], [369, 0, 0]]
    }, 
    {
      "op": "transpose", 
      "name": "maskrcnn1_rpn0_transpose1", 
      "attrs": {"axes": "(0, 2, 3, 1)"}, 
      "inputs": [[370, 0, 0]]
    }, 
    {
      "op": "Reshape", 
      "name": "maskrcnn1_rpn0_reshape1", 
      "attrs": {"shape": "(0, -1, 4)"}, 
      "inputs": [[371, 0, 0]]
    }, 
    {
      "op": "BlockGrad", 
      "name": "maskrcnn1_rpn0_stop_gradient1", 
      "inputs": [[372, 0, 0]]
    }, 
    {
      "op": "SliceChannel", 
      "name": "maskrcnn1_rpn0_normalizedboxcenterdecoder0_split1", 
      "attrs": {
        "axis": "-1", 
        "num_outputs": "4"
      }, 
      "inputs": [[373, 0, 0]]
    }, 
    {
      "op": "_mul_scalar", 
      "name": "maskrcnn1_rpn0_normalizedboxcenterdecoder0__mulscalar0", 
      "attrs": {"scalar": "1.0"}, 
      "inputs": [[374, 0, 0]]
    }, 
    {
      "op": "_plus_scalar", 
      "name": "maskrcnn1_rpn0_normalizedboxcenterdecoder0__plusscalar0", 
      "attrs": {"scalar": "0.0"}, 
      "inputs": [[375, 0, 0]]
    }, 
    {
      "op": "null", 
      "name": "maskrcnn1_rpn0_rpnanchorgenerator0_anchor_", 
      "attrs": {
        "__dtype__": "0", 
        "__init__": "Constant_maskrcnn1_rpn0_rpnanchorgenerator0_anchor__140013596373064", 
        "__lr_mult__": "1.0", 
        "__shape__": "(1, 1, 128, 128, 60)", 
        "__storage_type__": "0", 
        "__wd_mult__": "1.0"
      }, 
      "inputs": []
    }, 
    {
      "op": "_mul_scalar", 
      "name": "maskrcnn1_rpn0_rpnanchorgenerator0__mulscalar0", 
      "attrs": {"scalar": "0"}, 
      "inputs": [[360, 0, 0]]
    }, 
    {
      "op": "slice_like", 
      "name": "maskrcnn1_rpn0_rpnanchorgenerator0_slice_like0", 
      "attrs": {"axes": "(2, 3)"}, 
      "inputs": [[377, 0, 0], [378, 0, 0]]
    }, 
    {
      "op": "Reshape", 
      "name": "maskrcnn1_rpn0_rpnanchorgenerator0_reshape0", 
      "attrs": {"shape": "(1, -1, 4)"}, 
      "inputs": [[379, 0, 0]]
    }, 
    {
      "op": "SliceChannel", 
      "name": "maskrcnn1_rpn0_bboxcornertocenter0_split0", 
      "attrs": {
        "axis": "-1", 
        "num_outputs": "4"
      }, 
      "inputs": [[380, 0, 0]]
    }, 
    {
      "op": "elemwise_sub", 
      "name": "maskrcnn1_rpn0_bboxcornertocenter0__minus0", 
      "inputs": [[381, 2, 0], [381, 0, 0]]
    }, 
    {
      "op": "_div_scalar", 
      "name": "maskrcnn1_rpn0_bboxcornertocenter0__divscalar0", 
      "attrs": {"scalar": "2"}, 
      "inputs": [[382, 0, 0]]
    }, 
    {
      "op": "elemwise_add", 
      "name": "maskrcnn1_rpn0_bboxcornertocenter0__plus0", 
      "inputs": [[381, 0, 0], [383, 0, 0]]
    }, 
    {
      "op": "elemwise_sub", 
      "name": "maskrcnn1_rpn0_bboxcornertocenter0__minus1", 
      "inputs": [[381, 3, 0], [381, 1, 0]]
    }, 
    {
      "op": "_div_scalar", 
      "name": "maskrcnn1_rpn0_bboxcornertocenter0__divscalar1", 
      "attrs": {"scalar": "2"}, 
      "inputs": [[385, 0, 0]]
    }, 
    {
      "op": "elemwise_add", 
      "name": "maskrcnn1_rpn0_bboxcornertocenter0__plus1", 
      "inputs": [[381, 1, 0], [386, 0, 0]]
    }, 
    {
      "op": "Concat", 
      "name": "maskrcnn1_rpn0_bboxcornertocenter0_concat0", 
      "attrs": {
        "dim": "-1", 
        "num_args": "4"
      }, 
      "inputs": [[384, 0, 0], [387, 0, 0], [382, 0, 0], [385, 0, 0]]
    }, 
    {
      "op": "SliceChannel", 
      "name": "maskrcnn1_rpn0_normalizedboxcenterdecoder0_split0", 
      "attrs": {
        "axis": "-1", 
        "num_outputs": "4"
      }, 
      "inputs": [[388, 0, 0]]
    }, 
    {
      "op": "broadcast_mul", 
      "name": "maskrcnn1_rpn0_normalizedboxcenterdecoder0_broadcast_mul0", 
      "inputs": [[376, 0, 0], [389, 2, 0]]
    }, 
    {
      "op": "broadcast_add", 
      "name": "maskrcnn1_rpn0_normalizedboxcenterdecoder0_broadcast_add0", 
      "inputs": [[390, 0, 0], [389, 0, 0]]
    }, 
    {
      "op": "_mul_scalar", 
      "name": "maskrcnn1_rpn0_normalizedboxcenterdecoder0__mulscalar2", 
      "attrs": {"scalar": "1.0"}, 
      "inputs": [[374, 2, 0]]
    }, 
    {
      "op": "_plus_scalar", 
      "name": "maskrcnn1_rpn0_normalizedboxcenterdecoder0__plusscalar2", 
      "attrs": {"scalar": "0.0"}, 
      "inputs": [[392, 0, 0]]
    }, 
    {
      "op": "exp", 
      "name": "maskrcnn1_rpn0_normalizedboxcenterdecoder0_exp0", 
      "inputs": [[393, 0, 0]]
    }, 
    {
      "op": "_minimum_scalar", 
      "name": "maskrcnn1_rpn0_normalizedboxcenterdecoder0__minimumscalar0", 
      "attrs": {"scalar": "4.42"}, 
      "inputs": [[394, 0, 0]]
    }, 
    {
      "op": "broadcast_mul", 
      "name": "maskrcnn1_rpn0_normalizedboxcenterdecoder0_broadcast_mul2", 
      "inputs": [[395, 0, 0], [389, 2, 0]]
    }, 
    {
      "op": "_div_scalar", 
      "name": "maskrcnn1_rpn0_normalizedboxcenterdecoder0__divscalar0", 
      "attrs": {"scalar": "2"}, 
      "inputs": [[396, 0, 0]]
    }, 
    {
      "op": "elemwise_sub", 
      "name": "maskrcnn1_rpn0_normalizedboxcenterdecoder0__minus0", 
      "inputs": [[391, 0, 0], [397, 0, 0]]
    }, 
    {
      "op": "_mul_scalar", 
      "name": "maskrcnn1_rpn0_normalizedboxcenterdecoder0__mulscalar1", 
      "attrs": {"scalar": "1.0"}, 
      "inputs": [[374, 1, 0]]
    }, 
    {
      "op": "_plus_scalar", 
      "name": "maskrcnn1_rpn0_normalizedboxcenterdecoder0__plusscalar1", 
      "attrs": {"scalar": "0.0"}, 
      "inputs": [[399, 0, 0]]
    }, 
    {
      "op": "broadcast_mul", 
      "name": "maskrcnn1_rpn0_normalizedboxcenterdecoder0_broadcast_mul1", 
      "inputs": [[400, 0, 0], [389, 3, 0]]
    }, 
    {
      "op": "broadcast_add", 
      "name": "maskrcnn1_rpn0_normalizedboxcenterdecoder0_broadcast_add1", 
      "inputs": [[401, 0, 0], [389, 1, 0]]
    }, 
    {
      "op": "_mul_scalar", 
      "name": "maskrcnn1_rpn0_normalizedboxcenterdecoder0__mulscalar3", 
      "attrs": {"scalar": "1.0"}, 
      "inputs": [[374, 3, 0]]
    }, 
    {
      "op": "_plus_scalar", 
      "name": "maskrcnn1_rpn0_normalizedboxcenterdecoder0__plusscalar3", 
      "attrs": {"scalar": "0.0"}, 
      "inputs": [[403, 0, 0]]
    }, 
    {
      "op": "exp", 
      "name": "maskrcnn1_rpn0_normalizedboxcenterdecoder0_exp1", 
      "inputs": [[404, 0, 0]]
    }, 
    {
      "op": "_minimum_scalar", 
      "name": "maskrcnn1_rpn0_normalizedboxcenterdecoder0__minimumscalar1", 
      "attrs": {"scalar": "4.42"}, 
      "inputs": [[405, 0, 0]]
    }, 
    {
      "op": "broadcast_mul", 
      "name": "maskrcnn1_rpn0_normalizedboxcenterdecoder0_broadcast_mul3", 
      "inputs": [[406, 0, 0], [389, 3, 0]]
    }, 
    {
      "op": "_div_scalar", 
      "name": "maskrcnn1_rpn0_normalizedboxcenterdecoder0__divscalar1", 
      "attrs": {"scalar": "2"}, 
      "inputs": [[407, 0, 0]]
    }, 
    {
      "op": "elemwise_sub", 
      "name": "maskrcnn1_rpn0_normalizedboxcenterdecoder0__minus1", 
      "inputs": [[402, 0, 0], [408, 0, 0]]
    }, 
    {
      "op": "elemwise_add", 
      "name": "maskrcnn1_rpn0_normalizedboxcenterdecoder0__plus0", 
      "inputs": [[391, 0, 0], [397, 0, 0]]
    }, 
    {
      "op": "elemwise_add", 
      "name": "maskrcnn1_rpn0_normalizedboxcenterdecoder0__plus1", 
      "inputs": [[402, 0, 0], [408, 0, 0]]
    }, 
    {
      "op": "Concat", 
      "name": "maskrcnn1_rpn0_normalizedboxcenterdecoder0_concat0", 
      "attrs": {
        "dim": "-1", 
        "num_args": "4"
      }, 
      "inputs": [[398, 0, 0], [409, 0, 0], [410, 0, 0], [411, 0, 0]]
    }, 
    {
      "op": "_maximum_scalar", 
      "name": "maskrcnn1_rpn0_bboxcliptoimage0__maximumscalar0", 
      "attrs": {"scalar": "0.0"}, 
      "inputs": [[412, 0, 0]]
    }, 
    {
      "op": "zeros_like", 
      "name": "maskrcnn1_zeros_like0", 
      "inputs": [[5, 0, 0]]
    }, 
    {
      "op": "shape_array", 
      "name": "maskrcnn1_rpn0_bboxcliptoimage0_shape_array0", 
      "inputs": [[414, 0, 0]]
    }, 
    {
      "op": "slice_axis", 
      "name": "maskrcnn1_rpn0_bboxcliptoimage0_slice_axis0", 
      "attrs": {
        "axis": "0", 
        "begin": "2", 
        "end": "None"
      }, 
      "inputs": [[415, 0, 0]]
    }, 
    {
      "op": "expand_dims", 
      "name": "maskrcnn1_rpn0_bboxcliptoimage0_expand_dims0", 
      "attrs": {"axis": "0"}, 
      "inputs": [[416, 0, 0]]
    }, 
    {
      "op": "reverse", 
      "name": "maskrcnn1_rpn0_bboxcliptoimage0_reverse0", 
      "attrs": {"axis": "1"}, 
      "inputs": [[417, 0, 0]]
    }, 
    {
      "op": "tile", 
      "name": "maskrcnn1_rpn0_bboxcliptoimage0_tile0", 
      "attrs": {"reps": "(2,)"}, 
      "inputs": [[418, 0, 0]]
    }, 
    {
      "op": "Reshape", 
      "name": "maskrcnn1_rpn0_bboxcliptoimage0_reshape0", 
      "attrs": {"shape": "(0, -4, 1, -1)"}, 
      "inputs": [[419, 0, 0]]
    }, 
    {
      "op": "Cast", 
      "name": "maskrcnn1_rpn0_bboxcliptoimage0_cast0", 
      "attrs": {"dtype": "float32"}, 
      "inputs": [[420, 0, 0]]
    }, 
    {
      "op": "broadcast_minimum", 
      "name": "maskrcnn1_rpn0_bboxcliptoimage0_broadcast_minimum0", 
      "inputs": [[413, 0, 0], [421, 0, 0]]
    }, 
    {
      "op": "SliceChannel", 
      "name": "maskrcnn1_rpn0_rpnproposal0_split0", 
      "attrs": {
        "axis": "-1", 
        "num_outputs": "4"
      }, 
      "inputs": [[422, 0, 0]]
    }, 
    {
      "op": "elemwise_sub", 
      "name": "maskrcnn1_rpn0_rpnproposal0__minus0", 
      "inputs": [[423, 2, 0], [423, 0, 0]]
    }, 
    {
      "op": "_lesser_scalar", 
      "name": "maskrcnn1_rpn0_rpnproposal0__lesser_scalar0", 
      "attrs": {"scalar": "0"}, 
      "inputs": [[424, 0, 0]]
    }, 
    {
      "op": "elemwise_sub", 
      "name": "maskrcnn1_rpn0_rpnproposal0__minus1", 
      "inputs": [[423, 3, 0], [423, 1, 0]]
    }, 
    {
      "op": "_lesser_scalar", 
      "name": "maskrcnn1_rpn0_rpnproposal0__lesser_scalar1", 
      "attrs": {"scalar": "0"}, 
      "inputs": [[426, 0, 0]]
    }, 
    {
      "op": "elemwise_add", 
      "name": "maskrcnn1_rpn0_rpnproposal0__plus0", 
      "inputs": [[425, 0, 0], [427, 0, 0]]
    }, 
    {
      "op": "ones_like", 
      "name": "maskrcnn1_rpn0_rpnproposal0_ones_like0", 
      "inputs": [[428, 0, 0]]
    }, 
    {
      "op": "_mul_scalar", 
      "name": "maskrcnn1_rpn0_rpnproposal0__mulscalar0", 
      "attrs": {"scalar": "-1"}, 
      "inputs": [[429, 0, 0]]
    }, 
    {
      "op": "null", 
      "name": "maskrcnn1_rpn0_conv1_weight", 
      "attrs": {
        "__dtype__": "0", 
        "__init__": "[\"normal\", {\"sigma\": 0.01}]", 
        "__lr_mult__": "1.0", 
        "__shape__": "(15, 1024, 1, 1)", 
        "__storage_type__": "0", 
        "__wd_mult__": "1.0"
      }, 
      "inputs": []
    }, 
    {
      "op": "null", 
      "name": "maskrcnn1_rpn0_conv1_bias", 
      "attrs": {
        "__dtype__": "0", 
        "__init__": "zeros", 
        "__lr_mult__": "1.0", 
        "__shape__": "(15,)", 
        "__storage_type__": "0", 
        "__wd_mult__": "1.0"
      }, 
      "inputs": []
    }, 
    {
      "op": "Convolution", 
      "name": "maskrcnn1_rpn0_conv1_fwd", 
      "attrs": {
        "dilate": "(1, 1)", 
        "kernel": "(1, 1)", 
        "layout": "NCHW", 
        "no_bias": "False", 
        "num_filter": "15", 
        "num_group": "1", 
        "pad": "(0, 0)", 
        "stride": "(1, 1)"
      }, 
      "inputs": [[367, 0, 0], [431, 0, 0], [432, 0, 0]]
    }, 
    {
      "op": "transpose", 
      "name": "maskrcnn1_rpn0_transpose0", 
      "attrs": {"axes": "(0, 2, 3, 1)"}, 
      "inputs": [[433, 0, 0]]
    }, 
    {
      "op": "Reshape", 
      "name": "maskrcnn1_rpn0_reshape0", 
      "attrs": {"shape": "(0, -1, 1)"}, 
      "inputs": [[434, 0, 0]]
    }, 
    {
      "op": "BlockGrad", 
      "name": "maskrcnn1_rpn0_stop_gradient0", 
      "inputs": [[435, 0, 0]]
    }, 
    {
      "op": "sigmoid", 
      "name": "maskrcnn1_rpn0_sigmoid0", 
      "inputs": [[436, 0, 0]]
    }, 
    {
      "op": "where", 
      "name": "maskrcnn1_rpn0_rpnproposal0_where0", 
      "inputs": [[428, 0, 0], [430, 0, 0], [437, 0, 0]]
    }, 
    {
      "op": "repeat", 
      "name": "maskrcnn1_rpn0_rpnproposal0_repeat0", 
      "attrs": {
        "axis": "-1", 
        "repeats": "4"
      }, 
      "inputs": [[428, 0, 0]]
    }, 
    {
      "op": "ones_like", 
      "name": "maskrcnn1_rpn0_rpnproposal0_ones_like1", 
      "inputs": [[439, 0, 0]]
    }, 
    {
      "op": "_mul_scalar", 
      "name": "maskrcnn1_rpn0_rpnproposal0__mulscalar1", 
      "attrs": {"scalar": "-1"}, 
      "inputs": [[440, 0, 0]]
    }, 
    {
      "op": "where", 
      "name": "maskrcnn1_rpn0_rpnproposal0_where1", 
      "inputs": [[439, 0, 0], [441, 0, 0], [422, 0, 0]]
    }, 
    {
      "op": "Concat", 
      "name": "maskrcnn1_rpn0_rpnproposal0_concat0", 
      "attrs": {
        "dim": "-1", 
        "num_args": "2"
      }, 
      "inputs": [[438, 0, 0], [442, 0, 0]]
    }, 
    {
      "op": "_contrib_box_nms", 
      "name": "maskrcnn1_rpn0_box_nms0", 
      "attrs": {
        "coord_start": "1", 
        "force_suppress": "True", 
        "id_index": "-1", 
        "overlap_thresh": "0.7", 
        "score_index": "0", 
        "topk": "6000"
      }, 
      "inputs": [[443, 0, 0]]
    }, 
    {
      "op": "slice_axis", 
      "name": "maskrcnn1_rpn0_slice_axis0", 
      "attrs": {
        "axis": "1", 
        "begin": "0", 
        "end": "1000"
      }, 
      "inputs": [[444, 0, 0]]
    }, 
    {
      "op": "slice_axis", 
      "name": "maskrcnn1_rpn0_slice_axis2", 
      "attrs": {
        "axis": "-1", 
        "begin": "1", 
        "end": "None"
      }, 
      "inputs": [[445, 0, 0]]
    }, 
    {
      "op": "Reshape", 
      "name": "maskrcnn1_reshape1", 
      "attrs": {"shape": "(-1, 4)"}, 
      "inputs": [[446, 0, 0]]
    }, 
    {
      "op": "Concat", 
      "name": "maskrcnn1_concat0", 
      "attrs": {
        "dim": "-1", 
        "num_args": "2"
      }, 
      "inputs": [[363, 0, 0], [447, 0, 0]]
    }, 
    {
      "op": "BlockGrad", 
      "name": "maskrcnn1_stop_gradient0", 
      "inputs": [[448, 0, 0]]
    }, 
    {
      "op": "_contrib_ROIAlign", 
      "name": "maskrcnn1_roialign0", 
      "attrs": {
        "pooled_size": "(14, 14)", 
        "sample_ratio": "2", 
        "spatial_scale": "0.0625"
      }, 
      "inputs": [[360, 0, 0], [449, 0, 0]]
    }, 
    {
      "op": "null", 
      "name": "resnetv1b_layers4_conv0_weight", 
      "attrs": {
        "__dtype__": "0", 
        "__lr_mult__": "1.0", 
        "__shape__": "(512, 1024, 1, 1)", 
        "__storage_type__": "0", 
        "__wd_mult__": "1.0"
      }, 
      "inputs": []
    }, 
    {
      "op": "Convolution", 
      "name": "resnetv1b_layers4_conv0_fwd", 
      "attrs": {
        "dilate": "(1, 1)", 
        "kernel": "(1, 1)", 
        "layout": "NCHW", 
        "no_bias": "True", 
        "num_filter": "512", 
        "num_group": "1", 
        "pad": "(0, 0)", 
        "stride": "(1, 1)"
      }, 
      "inputs": [[450, 0, 0], [451, 0, 0]]
    }, 
    {
      "op": "null", 
      "name": "resnetv1b_layers4_batchnorm0_gamma", 
      "attrs": {
        "__dtype__": "0", 
        "__init__": "ones", 
        "__lr_mult__": "1.0", 
        "__shape__": "(512,)", 
        "__storage_type__": "0", 
        "__wd_mult__": "1.0"
      }, 
      "inputs": []
    }, 
    {
      "op": "null", 
      "name": "resnetv1b_layers4_batchnorm0_beta", 
      "attrs": {
        "__dtype__": "0", 
        "__init__": "zeros", 
        "__lr_mult__": "1.0", 
        "__shape__": "(512,)", 
        "__storage_type__": "0", 
        "__wd_mult__": "1.0"
      }, 
      "inputs": []
    }, 
    {
      "op": "null", 
      "name": "resnetv1b_layers4_batchnorm0_running_mean", 
      "attrs": {
        "__dtype__": "0", 
        "__init__": "zeros", 
        "__lr_mult__": "1.0", 
        "__shape__": "(512,)", 
        "__storage_type__": "0", 
        "__wd_mult__": "1.0"
      }, 
      "inputs": []
    }, 
    {
      "op": "null", 
      "name": "resnetv1b_layers4_batchnorm0_running_var", 
      "attrs": {
        "__dtype__": "0", 
        "__init__": "ones", 
        "__lr_mult__": "1.0", 
        "__shape__": "(512,)", 
        "__storage_type__": "0", 
        "__wd_mult__": "1.0"
      }, 
      "inputs": []
    }, 
    {
      "op": "BatchNorm", 
      "name": "resnetv1b_layers4_batchnorm0_fwd", 
      "attrs": {
        "axis": "1", 
        "eps": "1e-05", 
        "fix_gamma": "False", 
        "momentum": "0.9", 
        "use_global_stats": "True"
      }, 
      "inputs": [[452, 0, 0], [453, 0, 0], [454, 0, 0], [455, 0, 3], [456, 0, 3]]
    }, 
    {
      "op": "Activation", 
      "name": "resnetv1b_layers4_relu0_fwd", 
      "attrs": {"act_type": "relu"}, 
      "inputs": [[457, 0, 0]]
    }, 
    {
      "op": "null", 
      "name": "resnetv1b_layers4_conv1_weight", 
      "attrs": {
        "__dtype__": "0", 
        "__lr_mult__": "1.0", 
        "__shape__": "(512, 512, 3, 3)", 
        "__storage_type__": "0", 
        "__wd_mult__": "1.0"
      }, 
      "inputs": []
    }, 
    {
      "op": "Convolution", 
      "name": "resnetv1b_layers4_conv1_fwd", 
      "attrs": {
        "dilate": "(1, 1)", 
        "kernel": "(3, 3)", 
        "layout": "NCHW", 
        "no_bias": "True", 
        "num_filter": "512", 
        "num_group": "1", 
        "pad": "(1, 1)", 
        "stride": "(2, 2)"
      }, 
      "inputs": [[458, 0, 0], [459, 0, 0]]
    }, 
    {
      "op": "null", 
      "name": "resnetv1b_layers4_batchnorm1_gamma", 
      "attrs": {
        "__dtype__": "0", 
        "__init__": "ones", 
        "__lr_mult__": "1.0", 
        "__shape__": "(512,)", 
        "__storage_type__": "0", 
        "__wd_mult__": "1.0"
      }, 
      "inputs": []
    }, 
    {
      "op": "null", 
      "name": "resnetv1b_layers4_batchnorm1_beta", 
      "attrs": {
        "__dtype__": "0", 
        "__init__": "zeros", 
        "__lr_mult__": "1.0", 
        "__shape__": "(512,)", 
        "__storage_type__": "0", 
        "__wd_mult__": "1.0"
      }, 
      "inputs": []
    }, 
    {
      "op": "null", 
      "name": "resnetv1b_layers4_batchnorm1_running_mean", 
      "attrs": {
        "__dtype__": "0", 
        "__init__": "zeros", 
        "__lr_mult__": "1.0", 
        "__shape__": "(512,)", 
        "__storage_type__": "0", 
        "__wd_mult__": "1.0"
      }, 
      "inputs": []
    }, 
    {
      "op": "null", 
      "name": "resnetv1b_layers4_batchnorm1_running_var", 
      "attrs": {
        "__dtype__": "0", 
        "__init__": "ones", 
        "__lr_mult__": "1.0", 
        "__shape__": "(512,)", 
        "__storage_type__": "0", 
        "__wd_mult__": "1.0"
      }, 
      "inputs": []
    }, 
    {
      "op": "BatchNorm", 
      "name": "resnetv1b_layers4_batchnorm1_fwd", 
      "attrs": {
        "axis": "1", 
        "eps": "1e-05", 
        "fix_gamma": "False", 
        "momentum": "0.9", 
        "use_global_stats": "True"
      }, 
      "inputs": [[460, 0, 0], [461, 0, 0], [462, 0, 0], [463, 0, 3], [464, 0, 3]]
    }, 
    {
      "op": "Activation", 
      "name": "resnetv1b_layers4_relu1_fwd", 
      "attrs": {"act_type": "relu"}, 
      "inputs": [[465, 0, 0]]
    }, 
    {
      "op": "null", 
      "name": "resnetv1b_layers4_conv2_weight", 
      "attrs": {
        "__dtype__": "0", 
        "__lr_mult__": "1.0", 
        "__shape__": "(2048, 512, 1, 1)", 
        "__storage_type__": "0", 
        "__wd_mult__": "1.0"
      }, 
      "inputs": []
    }, 
    {
      "op": "Convolution", 
      "name": "resnetv1b_layers4_conv2_fwd", 
      "attrs": {
        "dilate": "(1, 1)", 
        "kernel": "(1, 1)", 
        "layout": "NCHW", 
        "no_bias": "True", 
        "num_filter": "2048", 
        "num_group": "1", 
        "pad": "(0, 0)", 
        "stride": "(1, 1)"
      }, 
      "inputs": [[466, 0, 0], [467, 0, 0]]
    }, 
    {
      "op": "null", 
      "name": "resnetv1b_layers4_batchnorm2_gamma", 
      "attrs": {
        "__dtype__": "0", 
        "__init__": "ones", 
        "__lr_mult__": "1.0", 
        "__shape__": "(2048,)", 
        "__storage_type__": "0", 
        "__wd_mult__": "1.0"
      }, 
      "inputs": []
    }, 
    {
      "op": "null", 
      "name": "resnetv1b_layers4_batchnorm2_beta", 
      "attrs": {
        "__dtype__": "0", 
        "__init__": "zeros", 
        "__lr_mult__": "1.0", 
        "__shape__": "(2048,)", 
        "__storage_type__": "0", 
        "__wd_mult__": "1.0"
      }, 
      "inputs": []
    }, 
    {
      "op": "null", 
      "name": "resnetv1b_layers4_batchnorm2_running_mean", 
      "attrs": {
        "__dtype__": "0", 
        "__init__": "zeros", 
        "__lr_mult__": "1.0", 
        "__shape__": "(2048,)", 
        "__storage_type__": "0", 
        "__wd_mult__": "1.0"
      }, 
      "inputs": []
    }, 
    {
      "op": "null", 
      "name": "resnetv1b_layers4_batchnorm2_running_var", 
      "attrs": {
        "__dtype__": "0", 
        "__init__": "ones", 
        "__lr_mult__": "1.0", 
        "__shape__": "(2048,)", 
        "__storage_type__": "0", 
        "__wd_mult__": "1.0"
      }, 
      "inputs": []
    }, 
    {
      "op": "BatchNorm", 
      "name": "resnetv1b_layers4_batchnorm2_fwd", 
      "attrs": {
        "axis": "1", 
        "eps": "1e-05", 
        "fix_gamma": "False", 
        "momentum": "0.9", 
        "use_global_stats": "True"
      }, 
      "inputs": [[468, 0, 0], [469, 0, 0], [470, 0, 0], [471, 0, 3], [472, 0, 3]]
    }, 
    {
      "op": "null", 
      "name": "resnetv1b_down4_conv0_weight", 
      "attrs": {
        "__dtype__": "0", 
        "__lr_mult__": "1.0", 
        "__shape__": "(2048, 1024, 1, 1)", 
        "__storage_type__": "0", 
        "__wd_mult__": "1.0"
      }, 
      "inputs": []
    }, 
    {
      "op": "Convolution", 
      "name": "resnetv1b_down4_conv0_fwd", 
      "attrs": {
        "dilate": "(1, 1)", 
        "kernel": "(1, 1)", 
        "layout": "NCHW", 
        "no_bias": "True", 
        "num_filter": "2048", 
        "num_group": "1", 
        "pad": "(0, 0)", 
        "stride": "(2, 2)"
      }, 
      "inputs": [[450, 0, 0], [474, 0, 0]]
    }, 
    {
      "op": "null", 
      "name": "resnetv1b_down4_batchnorm0_gamma", 
      "attrs": {
        "__dtype__": "0", 
        "__init__": "ones", 
        "__lr_mult__": "1.0", 
        "__shape__": "(2048,)", 
        "__storage_type__": "0", 
        "__wd_mult__": "1.0"
      }, 
      "inputs": []
    }, 
    {
      "op": "null", 
      "name": "resnetv1b_down4_batchnorm0_beta", 
      "attrs": {
        "__dtype__": "0", 
        "__init__": "zeros", 
        "__lr_mult__": "1.0", 
        "__shape__": "(2048,)", 
        "__storage_type__": "0", 
        "__wd_mult__": "1.0"
      }, 
      "inputs": []
    }, 
    {
      "op": "null", 
      "name": "resnetv1b_down4_batchnorm0_running_mean", 
      "attrs": {
        "__dtype__": "0", 
        "__init__": "zeros", 
        "__lr_mult__": "1.0", 
        "__shape__": "(2048,)", 
        "__storage_type__": "0", 
        "__wd_mult__": "1.0"
      }, 
      "inputs": []
    }, 
    {
      "op": "null", 
      "name": "resnetv1b_down4_batchnorm0_running_var", 
      "attrs": {
        "__dtype__": "0", 
        "__init__": "ones", 
        "__lr_mult__": "1.0", 
        "__shape__": "(2048,)", 
        "__storage_type__": "0", 
        "__wd_mult__": "1.0"
      }, 
      "inputs": []
    }, 
    {
      "op": "BatchNorm", 
      "name": "resnetv1b_down4_batchnorm0_fwd", 
      "attrs": {
        "axis": "1", 
        "eps": "1e-05", 
        "fix_gamma": "False", 
        "momentum": "0.9", 
        "use_global_stats": "True"
      }, 
      "inputs": [[475, 0, 0], [476, 0, 0], [477, 0, 0], [478, 0, 3], [479, 0, 3]]
    }, 
    {
      "op": "elemwise_add", 
      "name": "resnetv1b_layers4_bottleneckv1b0__plus0", 
      "inputs": [[473, 0, 0], [480, 0, 0]]
    }, 
    {
      "op": "Activation", 
      "name": "resnetv1b_layers4_relu2_fwd", 
      "attrs": {"act_type": "relu"}, 
      "inputs": [[481, 0, 0]]
    }, 
    {
      "op": "null", 
      "name": "resnetv1b_layers4_conv3_weight", 
      "attrs": {
        "__dtype__": "0", 
        "__lr_mult__": "1.0", 
        "__shape__": "(512, 2048, 1, 1)", 
        "__storage_type__": "0", 
        "__wd_mult__": "1.0"
      }, 
      "inputs": []
    }, 
    {
      "op": "Convolution", 
      "name": "resnetv1b_layers4_conv3_fwd", 
      "attrs": {
        "dilate": "(1, 1)", 
        "kernel": "(1, 1)", 
        "layout": "NCHW", 
        "no_bias": "True", 
        "num_filter": "512", 
        "num_group": "1", 
        "pad": "(0, 0)", 
        "stride": "(1, 1)"
      }, 
      "inputs": [[482, 0, 0], [483, 0, 0]]
    }, 
    {
      "op": "null", 
      "name": "resnetv1b_layers4_batchnorm3_gamma", 
      "attrs": {
        "__dtype__": "0", 
        "__init__": "ones", 
        "__lr_mult__": "1.0", 
        "__shape__": "(512,)", 
        "__storage_type__": "0", 
        "__wd_mult__": "1.0"
      }, 
      "inputs": []
    }, 
    {
      "op": "null", 
      "name": "resnetv1b_layers4_batchnorm3_beta", 
      "attrs": {
        "__dtype__": "0", 
        "__init__": "zeros", 
        "__lr_mult__": "1.0", 
        "__shape__": "(512,)", 
        "__storage_type__": "0", 
        "__wd_mult__": "1.0"
      }, 
      "inputs": []
    }, 
    {
      "op": "null", 
      "name": "resnetv1b_layers4_batchnorm3_running_mean", 
      "attrs": {
        "__dtype__": "0", 
        "__init__": "zeros", 
        "__lr_mult__": "1.0", 
        "__shape__": "(512,)", 
        "__storage_type__": "0", 
        "__wd_mult__": "1.0"
      }, 
      "inputs": []
    }, 
    {
      "op": "null", 
      "name": "resnetv1b_layers4_batchnorm3_running_var", 
      "attrs": {
        "__dtype__": "0", 
        "__init__": "ones", 
        "__lr_mult__": "1.0", 
        "__shape__": "(512,)", 
        "__storage_type__": "0", 
        "__wd_mult__": "1.0"
      }, 
      "inputs": []
    }, 
    {
      "op": "BatchNorm", 
      "name": "resnetv1b_layers4_batchnorm3_fwd", 
      "attrs": {
        "axis": "1", 
        "eps": "1e-05", 
        "fix_gamma": "False", 
        "momentum": "0.9", 
        "use_global_stats": "True"
      }, 
      "inputs": [[484, 0, 0], [485, 0, 0], [486, 0, 0], [487, 0, 3], [488, 0, 3]]
    }, 
    {
      "op": "Activation", 
      "name": "resnetv1b_layers4_relu3_fwd", 
      "attrs": {"act_type": "relu"}, 
      "inputs": [[489, 0, 0]]
    }, 
    {
      "op": "null", 
      "name": "resnetv1b_layers4_conv4_weight", 
      "attrs": {
        "__dtype__": "0", 
        "__lr_mult__": "1.0", 
        "__shape__": "(512, 512, 3, 3)", 
        "__storage_type__": "0", 
        "__wd_mult__": "1.0"
      }, 
      "inputs": []
    }, 
    {
      "op": "Convolution", 
      "name": "resnetv1b_layers4_conv4_fwd", 
      "attrs": {
        "dilate": "(1, 1)", 
        "kernel": "(3, 3)", 
        "layout": "NCHW", 
        "no_bias": "True", 
        "num_filter": "512", 
        "num_group": "1", 
        "pad": "(1, 1)", 
        "stride": "(1, 1)"
      }, 
      "inputs": [[490, 0, 0], [491, 0, 0]]
    }, 
    {
      "op": "null", 
      "name": "resnetv1b_layers4_batchnorm4_gamma", 
      "attrs": {
        "__dtype__": "0", 
        "__init__": "ones", 
        "__lr_mult__": "1.0", 
        "__shape__": "(512,)", 
        "__storage_type__": "0", 
        "__wd_mult__": "1.0"
      }, 
      "inputs": []
    }, 
    {
      "op": "null", 
      "name": "resnetv1b_layers4_batchnorm4_beta", 
      "attrs": {
        "__dtype__": "0", 
        "__init__": "zeros", 
        "__lr_mult__": "1.0", 
        "__shape__": "(512,)", 
        "__storage_type__": "0", 
        "__wd_mult__": "1.0"
      }, 
      "inputs": []
    }, 
    {
      "op": "null", 
      "name": "resnetv1b_layers4_batchnorm4_running_mean", 
      "attrs": {
        "__dtype__": "0", 
        "__init__": "zeros", 
        "__lr_mult__": "1.0", 
        "__shape__": "(512,)", 
        "__storage_type__": "0", 
        "__wd_mult__": "1.0"
      }, 
      "inputs": []
    }, 
    {
      "op": "null", 
      "name": "resnetv1b_layers4_batchnorm4_running_var", 
      "attrs": {
        "__dtype__": "0", 
        "__init__": "ones", 
        "__lr_mult__": "1.0", 
        "__shape__": "(512,)", 
        "__storage_type__": "0", 
        "__wd_mult__": "1.0"
      }, 
      "inputs": []
    }, 
    {
      "op": "BatchNorm", 
      "name": "resnetv1b_layers4_batchnorm4_fwd", 
      "attrs": {
        "axis": "1", 
        "eps": "1e-05", 
        "fix_gamma": "False", 
        "momentum": "0.9", 
        "use_global_stats": "True"
      }, 
      "inputs": [[492, 0, 0], [493, 0, 0], [494, 0, 0], [495, 0, 3], [496, 0, 3]]
    }, 
    {
      "op": "Activation", 
      "name": "resnetv1b_layers4_relu4_fwd", 
      "attrs": {"act_type": "relu"}, 
      "inputs": [[497, 0, 0]]
    }, 
    {
      "op": "null", 
      "name": "resnetv1b_layers4_conv5_weight", 
      "attrs": {
        "__dtype__": "0", 
        "__lr_mult__": "1.0", 
        "__shape__": "(2048, 512, 1, 1)", 
        "__storage_type__": "0", 
        "__wd_mult__": "1.0"
      }, 
      "inputs": []
    }, 
    {
      "op": "Convolution", 
      "name": "resnetv1b_layers4_conv5_fwd", 
      "attrs": {
        "dilate": "(1, 1)", 
        "kernel": "(1, 1)", 
        "layout": "NCHW", 
        "no_bias": "True", 
        "num_filter": "2048", 
        "num_group": "1", 
        "pad": "(0, 0)", 
        "stride": "(1, 1)"
      }, 
      "inputs": [[498, 0, 0], [499, 0, 0]]
    }, 
    {
      "op": "null", 
      "name": "resnetv1b_layers4_batchnorm5_gamma", 
      "attrs": {
        "__dtype__": "0", 
        "__init__": "ones", 
        "__lr_mult__": "1.0", 
        "__shape__": "(2048,)", 
        "__storage_type__": "0", 
        "__wd_mult__": "1.0"
      }, 
      "inputs": []
    }, 
    {
      "op": "null", 
      "name": "resnetv1b_layers4_batchnorm5_beta", 
      "attrs": {
        "__dtype__": "0", 
        "__init__": "zeros", 
        "__lr_mult__": "1.0", 
        "__shape__": "(2048,)", 
        "__storage_type__": "0", 
        "__wd_mult__": "1.0"
      }, 
      "inputs": []
    }, 
    {
      "op": "null", 
      "name": "resnetv1b_layers4_batchnorm5_running_mean", 
      "attrs": {
        "__dtype__": "0", 
        "__init__": "zeros", 
        "__lr_mult__": "1.0", 
        "__shape__": "(2048,)", 
        "__storage_type__": "0", 
        "__wd_mult__": "1.0"
      }, 
      "inputs": []
    }, 
    {
      "op": "null", 
      "name": "resnetv1b_layers4_batchnorm5_running_var", 
      "attrs": {
        "__dtype__": "0", 
        "__init__": "ones", 
        "__lr_mult__": "1.0", 
        "__shape__": "(2048,)", 
        "__storage_type__": "0", 
        "__wd_mult__": "1.0"
      }, 
      "inputs": []
    }, 
    {
      "op": "BatchNorm", 
      "name": "resnetv1b_layers4_batchnorm5_fwd", 
      "attrs": {
        "axis": "1", 
        "eps": "1e-05", 
        "fix_gamma": "False", 
        "momentum": "0.9", 
        "use_global_stats": "True"
      }, 
      "inputs": [[500, 0, 0], [501, 0, 0], [502, 0, 0], [503, 0, 3], [504, 0, 3]]
    }, 
    {
      "op": "elemwise_add", 
      "name": "resnetv1b_layers4_bottleneckv1b1__plus0", 
      "inputs": [[505, 0, 0], [482, 0, 0]]
    }, 
    {
      "op": "Activation", 
      "name": "resnetv1b_layers4_relu5_fwd", 
      "attrs": {"act_type": "relu"}, 
      "inputs": [[506, 0, 0]]
    }, 
    {
      "op": "null", 
      "name": "resnetv1b_layers4_conv6_weight", 
      "attrs": {
        "__dtype__": "0", 
        "__lr_mult__": "1.0", 
        "__shape__": "(512, 2048, 1, 1)", 
        "__storage_type__": "0", 
        "__wd_mult__": "1.0"
      }, 
      "inputs": []
    }, 
    {
      "op": "Convolution", 
      "name": "resnetv1b_layers4_conv6_fwd", 
      "attrs": {
        "dilate": "(1, 1)", 
        "kernel": "(1, 1)", 
        "layout": "NCHW", 
        "no_bias": "True", 
        "num_filter": "512", 
        "num_group": "1", 
        "pad": "(0, 0)", 
        "stride": "(1, 1)"
      }, 
      "inputs": [[507, 0, 0], [508, 0, 0]]
    }, 
    {
      "op": "null", 
      "name": "resnetv1b_layers4_batchnorm6_gamma", 
      "attrs": {
        "__dtype__": "0", 
        "__init__": "ones", 
        "__lr_mult__": "1.0", 
        "__shape__": "(512,)", 
        "__storage_type__": "0", 
        "__wd_mult__": "1.0"
      }, 
      "inputs": []
    }, 
    {
      "op": "null", 
      "name": "resnetv1b_layers4_batchnorm6_beta", 
      "attrs": {
        "__dtype__": "0", 
        "__init__": "zeros", 
        "__lr_mult__": "1.0", 
        "__shape__": "(512,)", 
        "__storage_type__": "0", 
        "__wd_mult__": "1.0"
      }, 
      "inputs": []
    }, 
    {
      "op": "null", 
      "name": "resnetv1b_layers4_batchnorm6_running_mean", 
      "attrs": {
        "__dtype__": "0", 
        "__init__": "zeros", 
        "__lr_mult__": "1.0", 
        "__shape__": "(512,)", 
        "__storage_type__": "0", 
        "__wd_mult__": "1.0"
      }, 
      "inputs": []
    }, 
    {
      "op": "null", 
      "name": "resnetv1b_layers4_batchnorm6_running_var", 
      "attrs": {
        "__dtype__": "0", 
        "__init__": "ones", 
        "__lr_mult__": "1.0", 
        "__shape__": "(512,)", 
        "__storage_type__": "0", 
        "__wd_mult__": "1.0"
      }, 
      "inputs": []
    }, 
    {
      "op": "BatchNorm", 
      "name": "resnetv1b_layers4_batchnorm6_fwd", 
      "attrs": {
        "axis": "1", 
        "eps": "1e-05", 
        "fix_gamma": "False", 
        "momentum": "0.9", 
        "use_global_stats": "True"
      }, 
      "inputs": [[509, 0, 0], [510, 0, 0], [511, 0, 0], [512, 0, 3], [513, 0, 3]]
    }, 
    {
      "op": "Activation", 
      "name": "resnetv1b_layers4_relu6_fwd", 
      "attrs": {"act_type": "relu"}, 
      "inputs": [[514, 0, 0]]
    }, 
    {
      "op": "null", 
      "name": "resnetv1b_layers4_conv7_weight", 
      "attrs": {
        "__dtype__": "0", 
        "__lr_mult__": "1.0", 
        "__shape__": "(512, 512, 3, 3)", 
        "__storage_type__": "0", 
        "__wd_mult__": "1.0"
      }, 
      "inputs": []
    }, 
    {
      "op": "Convolution", 
      "name": "resnetv1b_layers4_conv7_fwd", 
      "attrs": {
        "dilate": "(1, 1)", 
        "kernel": "(3, 3)", 
        "layout": "NCHW", 
        "no_bias": "True", 
        "num_filter": "512", 
        "num_group": "1", 
        "pad": "(1, 1)", 
        "stride": "(1, 1)"
      }, 
      "inputs": [[515, 0, 0], [516, 0, 0]]
    }, 
    {
      "op": "null", 
      "name": "resnetv1b_layers4_batchnorm7_gamma", 
      "attrs": {
        "__dtype__": "0", 
        "__init__": "ones", 
        "__lr_mult__": "1.0", 
        "__shape__": "(512,)", 
        "__storage_type__": "0", 
        "__wd_mult__": "1.0"
      }, 
      "inputs": []
    }, 
    {
      "op": "null", 
      "name": "resnetv1b_layers4_batchnorm7_beta", 
      "attrs": {
        "__dtype__": "0", 
        "__init__": "zeros", 
        "__lr_mult__": "1.0", 
        "__shape__": "(512,)", 
        "__storage_type__": "0", 
        "__wd_mult__": "1.0"
      }, 
      "inputs": []
    }, 
    {
      "op": "null", 
      "name": "resnetv1b_layers4_batchnorm7_running_mean", 
      "attrs": {
        "__dtype__": "0", 
        "__init__": "zeros", 
        "__lr_mult__": "1.0", 
        "__shape__": "(512,)", 
        "__storage_type__": "0", 
        "__wd_mult__": "1.0"
      }, 
      "inputs": []
    }, 
    {
      "op": "null", 
      "name": "resnetv1b_layers4_batchnorm7_running_var", 
      "attrs": {
        "__dtype__": "0", 
        "__init__": "ones", 
        "__lr_mult__": "1.0", 
        "__shape__": "(512,)", 
        "__storage_type__": "0", 
        "__wd_mult__": "1.0"
      }, 
      "inputs": []
    }, 
    {
      "op": "BatchNorm", 
      "name": "resnetv1b_layers4_batchnorm7_fwd", 
      "attrs": {
        "axis": "1", 
        "eps": "1e-05", 
        "fix_gamma": "False", 
        "momentum": "0.9", 
        "use_global_stats": "True"
      }, 
      "inputs": [[517, 0, 0], [518, 0, 0], [519, 0, 0], [520, 0, 3], [521, 0, 3]]
    }, 
    {
      "op": "Activation", 
      "name": "resnetv1b_layers4_relu7_fwd", 
      "attrs": {"act_type": "relu"}, 
      "inputs": [[522, 0, 0]]
    }, 
    {
      "op": "null", 
      "name": "resnetv1b_layers4_conv8_weight", 
      "attrs": {
        "__dtype__": "0", 
        "__lr_mult__": "1.0", 
        "__shape__": "(2048, 512, 1, 1)", 
        "__storage_type__": "0", 
        "__wd_mult__": "1.0"
      }, 
      "inputs": []
    }, 
    {
      "op": "Convolution", 
      "name": "resnetv1b_layers4_conv8_fwd", 
      "attrs": {
        "dilate": "(1, 1)", 
        "kernel": "(1, 1)", 
        "layout": "NCHW", 
        "no_bias": "True", 
        "num_filter": "2048", 
        "num_group": "1", 
        "pad": "(0, 0)", 
        "stride": "(1, 1)"
      }, 
      "inputs": [[523, 0, 0], [524, 0, 0]]
    }, 
    {
      "op": "null", 
      "name": "resnetv1b_layers4_batchnorm8_gamma", 
      "attrs": {
        "__dtype__": "0", 
        "__init__": "ones", 
        "__lr_mult__": "1.0", 
        "__shape__": "(2048,)", 
        "__storage_type__": "0", 
        "__wd_mult__": "1.0"
      }, 
      "inputs": []
    }, 
    {
      "op": "null", 
      "name": "resnetv1b_layers4_batchnorm8_beta", 
      "attrs": {
        "__dtype__": "0", 
        "__init__": "zeros", 
        "__lr_mult__": "1.0", 
        "__shape__": "(2048,)", 
        "__storage_type__": "0", 
        "__wd_mult__": "1.0"
      }, 
      "inputs": []
    }, 
    {
      "op": "null", 
      "name": "resnetv1b_layers4_batchnorm8_running_mean", 
      "attrs": {
        "__dtype__": "0", 
        "__init__": "zeros", 
        "__lr_mult__": "1.0", 
        "__shape__": "(2048,)", 
        "__storage_type__": "0", 
        "__wd_mult__": "1.0"
      }, 
      "inputs": []
    }, 
    {
      "op": "null", 
      "name": "resnetv1b_layers4_batchnorm8_running_var", 
      "attrs": {
        "__dtype__": "0", 
        "__init__": "ones", 
        "__lr_mult__": "1.0", 
        "__shape__": "(2048,)", 
        "__storage_type__": "0", 
        "__wd_mult__": "1.0"
      }, 
      "inputs": []
    }, 
    {
      "op": "BatchNorm", 
      "name": "resnetv1b_layers4_batchnorm8_fwd", 
      "attrs": {
        "axis": "1", 
        "eps": "1e-05", 
        "fix_gamma": "False", 
        "momentum": "0.9", 
        "use_global_stats": "True"
      }, 
      "inputs": [[525, 0, 0], [526, 0, 0], [527, 0, 0], [528, 0, 3], [529, 0, 3]]
    }, 
    {
      "op": "elemwise_add", 
      "name": "resnetv1b_layers4_bottleneckv1b2__plus0", 
      "inputs": [[530, 0, 0], [507, 0, 0]]
    }, 
    {
      "op": "Activation", 
      "name": "resnetv1b_layers4_relu8_fwd", 
…
      "name": "maskrcnn1_multiperclassdecoder0__plusscalar17", 
      "attrs": {"scalar": "17"}, 
      "inputs": [[542, 0, 0]]
    }, 
    {
      "op": "_plus_scalar", 
      "name": "maskrcnn1_multiperclassdecoder0__plusscalar18", 
      "attrs": {"scalar": "18"}, 
      "inputs": [[542, 0, 0]]
    }, 
    {
      "op": "_plus_scalar", 
      "name": "maskrcnn1_multiperclassdecoder0__plusscalar19", 
      "attrs": {"scalar": "19"}, 
      "inputs": [[542, 0, 0]]
    }, 
    {
      "op": "_plus_scalar", 
      "name": "maskrcnn1_multiperclassdecoder0__plusscalar20", 
      "attrs": {"scalar": "20"}, 
      "inputs": [[542, 0, 0]]
    }, 
    {
      "op": "_plus_scalar", 
      "name": "maskrcnn1_multiperclassdecoder0__plusscalar21", 
      "attrs": {"scalar": "21"}, 
      "inputs": [[542, 0, 0]]
    }, 
    {
      "op": "_plus_scalar", 
      "name": "maskrcnn1_multiperclassdecoder0__plusscalar22", 
      "attrs": {"scalar": "22"}, 
      "inputs": [[542, 0, 0]]
    }, 
    {
      "op": "_plus_scalar", 
      "name": "maskrcnn1_multiperclassdecoder0__plusscalar23", 
      "attrs": {"scalar": "23"}, 
      "inputs": [[542, 0, 0]]
    }, 
    {
      "op": "_plus_scalar", 
      "name": "maskrcnn1_multiperclassdecoder0__plusscalar24", 
      "attrs": {"scalar": "24"}, 
      "inputs": [[542, 0, 0]]
    }, 
    {
      "op": "_plus_scalar", 
      "name": "maskrcnn1_multiperclassdecoder0__plusscalar25", 
      "attrs": {"scalar": "25"}, 
      "inputs": [[542, 0, 0]]
    }, 
    {
      "op": "_plus_scalar", 
      "name": "maskrcnn1_multiperclassdecoder0__plusscalar26", 
      "attrs": {"scalar": "26"}, 
      "inputs": [[542, 0, 0]]
    }, 
    {
      "op": "_plus_scalar", 
      "name": "maskrcnn1_multiperclassdecoder0__plusscalar27", 
      "attrs": {"scalar": "27"}, 
      "inputs": [[542, 0, 0]]
    }, 
    {
      "op": "_plus_scalar", 
      "name": "maskrcnn1_multiperclassdecoder0__plusscalar28", 
      "attrs": {"scalar": "28"}, 
      "inputs": [[542, 0, 0]]
    }, 
    {
      "op": "_plus_scalar", 
      "name": "maskrcnn1_multiperclassdecoder0__plusscalar29", 
      "attrs": {"scalar": "29"}, 
      "inputs": [[542, 0, 0]]
    }, 
    {
      "op": "_plus_scalar", 
      "name": "maskrcnn1_multiperclassdecoder0__plusscalar30", 
      "attrs": {"scalar": "30"}, 
      "inputs": [[542, 0, 0]]
    }, 
    {
      "op": "_plus_scalar", 
      "name": "maskrcnn1_multiperclassdecoder0__plusscalar31", 
      "attrs": {"scalar": "31"}, 
      "inputs": [[542, 0, 0]]
    }, 
    {
      "op": "_plus_scalar", 
      "name": "maskrcnn1_multiperclassdecoder0__plusscalar32", 
      "attrs": {"scalar": "32"}, 
      "inputs": [[542, 0, 0]]
    }, 
    {
      "op": "_plus_scalar", 
      "name": "maskrcnn1_multiperclassdecoder0__plusscalar33", 
      "attrs": {"scalar": "33"}, 
      "inputs": [[542, 0, 0]]
    }, 
    {
      "op": "_plus_scalar", 
      "name": "maskrcnn1_multiperclassdecoder0__plusscalar34", 
      "attrs": {"scalar": "34"}, 
      "inputs": [[542, 0, 0]]
    }, 
    {
      "op": "_plus_scalar", 
      "name": "maskrcnn1_multiperclassdecoder0__plusscalar35", 
      "attrs": {"scalar": "35"}, 
      "inputs": [[542, 0, 0]]
    }, 
    {
      "op": "_plus_scalar", 
      "name": "maskrcnn1_multiperclassdecoder0__plusscalar36", 
      "attrs": {"scalar": "36"}, 
      "inputs": [[542, 0, 0]]
    }, 
    {
      "op": "_plus_scalar", 
      "name": "maskrcnn1_multiperclassdecoder0__plusscalar37", 
      "attrs": {"scalar": "37"}, 
      "inputs": [[542, 0, 0]]
    }, 
    {
      "op": "_plus_scalar", 
      "name": "maskrcnn1_multiperclassdecoder0__plusscalar38", 
      "attrs": {"scalar": "38"}, 
      "inputs": [[542, 0, 0]]
    }, 
    {
      "op": "_plus_scalar", 
      "name": "maskrcnn1_multiperclassdecoder0__plusscalar39", 
      "attrs": {"scalar": "39"}, 
      "inputs": [[542, 0, 0]]
    }, 
    {
      "op": "_plus_scalar", 
      "name": "maskrcnn1_multiperclassdecoder0__plusscalar40", 
      "attrs": {"scalar": "40"}, 
      "inputs": [[542, 0, 0]]
    }, 
    {
      "op": "_plus_scalar", 
      "name": "maskrcnn1_multiperclassdecoder0__plusscalar41", 
      "attrs": {"scalar": "41"}, 
      "inputs": [[542, 0, 0]]
    }, 
    {
      "op": "_plus_scalar", 
      "name": "maskrcnn1_multiperclassdecoder0__plusscalar42", 
      "attrs": {"scalar": "42"}, 
      "inputs": [[542, 0, 0]]
    }, 
    {
      "op": "_plus_scalar", 
      "name": "maskrcnn1_multiperclassdecoder0__plusscalar43", 
      "attrs": {"scalar": "43"}, 
      "inputs": [[542, 0, 0]]
    }, 
    {
      "op": "_plus_scalar", 
      "name": "maskrcnn1_multiperclassdecoder0__plusscalar44", 
      "attrs": {"scalar": "44"}, 
      "inputs": [[542, 0, 0]]
    }, 
    {
      "op": "_plus_scalar", 
      "name": "maskrcnn1_multiperclassdecoder0__plusscalar45", 
      "attrs": {"scalar": "45"}, 
      "inputs": [[542, 0, 0]]
    }, 
    {
      "op": "_plus_scalar", 
      "name": "maskrcnn1_multiperclassdecoder0__plusscalar46", 
      "attrs": {"scalar": "46"}, 
      "inputs": [[542, 0, 0]]
    }, 
    {
      "op": "_plus_scalar", 
      "name": "maskrcnn1_multiperclassdecoder0__plusscalar47", 
      "attrs": {"scalar": "47"}, 
      "inputs": [[542, 0, 0]]
    }, 
    {
      "op": "_plus_scalar", 
      "name": "maskrcnn1_multiperclassdecoder0__plusscalar48", 
      "attrs": {"scalar": "48"}, 
      "inputs": [[542, 0, 0]]
    }, 
    {
      "op": "_plus_scalar", 
      "name": "maskrcnn1_multiperclassdecoder0__plusscalar49", 
      "attrs": {"scalar": "49"}, 
      "inputs": [[542, 0, 0]]
    }, 
    {
      "op": "_plus_scalar", 
      "name": "maskrcnn1_multiperclassdecoder0__plusscalar50", 
      "attrs": {"scalar": "50"}, 
      "inputs": [[542, 0, 0]]
    }, 
    {
      "op": "_plus_scalar", 
      "name": "maskrcnn1_multiperclassdecoder0__plusscalar51", 
      "attrs": {"scalar": "51"}, 
      "inputs": [[542, 0, 0]]
    }, 
    {
      "op": "_plus_scalar", 
      "name": "maskrcnn1_multiperclassdecoder0__plusscalar52", 
      "attrs": {"scalar": "52"}, 
      "inputs": [[542, 0, 0]]
    }, 
    {
      "op": "_plus_scalar", 
      "name": "maskrcnn1_multiperclassdecoder0__plusscalar53", 
      "attrs": {"scalar": "53"}, 
      "inputs": [[542, 0, 0]]
    }, 
    {
      "op": "_plus_scalar", 
      "name": "maskrcnn1_multiperclassdecoder0__plusscalar54", 
      "attrs": {"scalar": "54"}, 
      "inputs": [[542, 0, 0]]
    }, 
    {
      "op": "_plus_scalar", 
      "name": "maskrcnn1_multiperclassdecoder0__plusscalar55", 
      "attrs": {"scalar": "55"}, 
      "inputs": [[542, 0, 0]]
    }, 
    {
      "op": "_plus_scalar", 
      "name": "maskrcnn1_multiperclassdecoder0__plusscalar56", 
      "attrs": {"scalar": "56"}, 
      "inputs": [[542, 0, 0]]
    }, 
    {
      "op": "_plus_scalar", 
      "name": "maskrcnn1_multiperclassdecoder0__plusscalar57", 
      "attrs": {"scalar": "57"}, 
      "inputs": [[542, 0, 0]]
    }, 
    {
      "op": "_plus_scalar", 
      "name": "maskrcnn1_multiperclassdecoder0__plusscalar58", 
      "attrs": {"scalar": "58"}, 
      "inputs": [[542, 0, 0]]
    }, 
    {
      "op": "_plus_scalar", 
      "name": "maskrcnn1_multiperclassdecoder0__plusscalar59", 
      "attrs": {"scalar": "59"}, 
      "inputs": [[542, 0, 0]]
    }, 
    {
      "op": "_plus_scalar", 
      "name": "maskrcnn1_multiperclassdecoder0__plusscalar60", 
      "attrs": {"scalar": "60"}, 
      "inputs": [[542, 0, 0]]
    }, 
    {
      "op": "_plus_scalar", 
      "name": "maskrcnn1_multiperclassdecoder0__plusscalar61", 
      "attrs": {"scalar": "61"}, 
      "inputs": [[542, 0, 0]]
    }, 
    {
      "op": "_plus_scalar", 
      "name": "maskrcnn1_multiperclassdecoder0__plusscalar62", 
      "attrs": {"scalar": "62"}, 
      "inputs": [[542, 0, 0]]
    }, 
    {
      "op": "_plus_scalar", 
      "name": "maskrcnn1_multiperclassdecoder0__plusscalar63", 
      "attrs": {"scalar": "63"}, 
      "inputs": [[542, 0, 0]]
    }, 
    {
      "op": "_plus_scalar", 
      "name": "maskrcnn1_multiperclassdecoder0__plusscalar64", 
      "attrs": {"scalar": "64"}, 
      "inputs": [[542, 0, 0]]
    }, 
    {
      "op": "_plus_scalar", 
      "name": "maskrcnn1_multiperclassdecoder0__plusscalar65", 
      "attrs": {"scalar": "65"}, 
      "inputs": [[542, 0, 0]]
    }, 
    {
      "op": "_plus_scalar", 
      "name": "maskrcnn1_multiperclassdecoder0__plusscalar66", 
      "attrs": {"scalar": "66"}, 
      "inputs": [[542, 0, 0]]
    }, 
    {
      "op": "_plus_scalar", 
      "name": "maskrcnn1_multiperclassdecoder0__plusscalar67", 
      "attrs": {"scalar": "67"}, 
      "inputs": [[542, 0, 0]]
    }, 
    {
      "op": "_plus_scalar", 
      "name": "maskrcnn1_multiperclassdecoder0__plusscalar68", 
      "attrs": {"scalar": "68"}, 
      "inputs": [[542, 0, 0]]
    }, 
    {
      "op": "_plus_scalar", 
      "name": "maskrcnn1_multiperclassdecoder0__plusscalar69", 
      "attrs": {"scalar": "69"}, 
      "inputs": [[542, 0, 0]]
    }, 
    {
      "op": "_plus_scalar", 
      "name": "maskrcnn1_multiperclassdecoder0__plusscalar70", 
      "attrs": {"scalar": "70"}, 
      "inputs": [[542, 0, 0]]
    }, 
    {
      "op": "_plus_scalar", 
      "name": "maskrcnn1_multiperclassdecoder0__plusscalar71", 
      "attrs": {"scalar": "71"}, 
      "inputs": [[542, 0, 0]]
    }, 
    {
      "op": "_plus_scalar", 
      "name": "maskrcnn1_multiperclassdecoder0__plusscalar72", 
      "attrs": {"scalar": "72"}, 
      "inputs": [[542, 0, 0]]
    }, 
    {
      "op": "_plus_scalar", 
      "name": "maskrcnn1_multiperclassdecoder0__plusscalar73", 
      "attrs": {"scalar": "73"}, 
      "inputs": [[542, 0, 0]]
    }, 
    {
      "op": "_plus_scalar", 
      "name": "maskrcnn1_multiperclassdecoder0__plusscalar74", 
      "attrs": {"scalar": "74"}, 
      "inputs": [[542, 0, 0]]
    }, 
    {
      "op": "_plus_scalar", 
      "name": "maskrcnn1_multiperclassdecoder0__plusscalar75", 
      "attrs": {"scalar": "75"}, 
      "inputs": [[542, 0, 0]]
    }, 
    {
      "op": "_plus_scalar", 
      "name": "maskrcnn1_multiperclassdecoder0__plusscalar76", 
      "attrs": {"scalar": "76"}, 
      "inputs": [[542, 0, 0]]
    }, 
    {
      "op": "_plus_scalar", 
      "name": "maskrcnn1_multiperclassdecoder0__plusscalar77", 
      "attrs": {"scalar": "77"}, 
      "inputs": [[542, 0, 0]]
    }, 
    {
      "op": "_plus_scalar", 
      "name": "maskrcnn1_multiperclassdecoder0__plusscalar78", 
      "attrs": {"scalar": "78"}, 
      "inputs": [[542, 0, 0]]
    }, 
    {
      "op": "_plus_scalar", 
      "name": "maskrcnn1_multiperclassdecoder0__plusscalar79", 
      "attrs": {"scalar": "79"}, 
      "inputs": [[542, 0, 0]]
    }, 
    {
      "op": "Concat", 
      "name": "maskrcnn1_multiperclassdecoder0_concat0", 
      "attrs": {
        "dim": "-1", 
        "num_args": "80"
      }, 
      "inputs": [
        [543, 0, 0], 
        [544, 0, 0], 
        [545, 0, 0], 
        [546, 0, 0], 
        [547, 0, 0], 
        [548, 0, 0], 
        [549, 0, 0], 
        [550, 0, 0], 
        [551, 0, 0], 
        [552, 0, 0], 
        [553, 0, 0], 
        [554, 0, 0], 
        [555, 0, 0], 
        [556, 0, 0], 
        [557, 0, 0], 
        [558, 0, 0], 
        [559, 0, 0], 
        [560, 0, 0], 
        [561, 0, 0], 
        [562, 0, 0], 
        [563, 0, 0], 
        [564, 0, 0], 
        [565, 0, 0], 
        [566, 0, 0], 
        [567, 0, 0], 
        [568, 0, 0], 
        [569, 0, 0], 
        [570, 0, 0], 
        [571, 0, 0], 
        [572, 0, 0], 
        [573, 0, 0], 
        [574, 0, 0], 
        [575, 0, 0], 
        [576, 0, 0], 
        [577, 0, 0], 
        [578, 0, 0], 
        [579, 0, 0], 
        [580, 0, 0], 
        [581, 0, 0], 
        [582, 0, 0], 
        [583, 0, 0], 
        [584, 0, 0], 
        [585, 0, 0], 
        [586, 0, 0], 
        [587, 0, 0], 
        [588, 0, 0], 
        [589, 0, 0], 
        [590, 0, 0], 
        [591, 0, 0], 
        [592, 0, 0], 
        [593, 0, 0], 
        [594, 0, 0], 
        [595, 0, 0], 
        [596, 0, 0], 
        [597, 0, 0], 
        [598, 0, 0], 
        [599, 0, 0], 
        [600, 0, 0], 
        [601, 0, 0], 
        [602, 0, 0], 
        [603, 0, 0], 
        [604, 0, 0], 
        [605, 0, 0], 
        [606, 0, 0], 
        [607, 0, 0], 
        [608, 0, 0], 
        [609, 0, 0], 
        [610, 0, 0], 
        [611, 0, 0], 
        [612, 0, 0], 
        [613, 0, 0], 
        [614, 0, 0], 
        [615, 0, 0], 
        [616, 0, 0], 
        [617, 0, 0], 
        [618, 0, 0], 
        [619, 0, 0], 
        [620, 0, 0], 
        [621, 0, 0], 
        [622, 0, 0]
      ]
    }, 
    {
      "op": "ones_like", 
      "name": "maskrcnn1_multiperclassdecoder0_ones_like0", 
      "inputs": [[623, 0, 0]]
    }, 
    {
      "op": "_mul_scalar", 
      "name": "maskrcnn1_multiperclassdecoder0__mulscalar0", 
      "attrs": {"scalar": "-1"}, 
      "inputs": [[624, 0, 0]]
    }, 
    {
      "op": "where", 
      "name": "maskrcnn1_multiperclassdecoder0_where0", 
      "inputs": [[540, 0, 0], [623, 0, 0], [625, 0, 0]]
    }, 
    {
      "op": "transpose", 
      "name": "maskrcnn1_transpose0", 
      "attrs": {"axes": "(0, 2, 1)"}, 
      "inputs": [[626, 0, 0]]
    }, 
    {
      "op": "Reshape", 
      "name": "maskrcnn1_reshape4", 
      "attrs": {"shape": "(0, 0, 0, 1)"}, 
      "inputs": [[627, 0, 0]]
    }, 
    {
      "op": "SliceChannel", 
      "name": "maskrcnn1_split1", 
      "attrs": {
        "axis": "0", 
        "num_outputs": "1", 
        "squeeze_axis": "True"
      }, 
      "inputs": [[628, 0, 0]]
    }, 
    {
      "op": "zeros_like", 
      "name": "maskrcnn1_multiperclassdecoder0_zeros_like1", 
      "inputs": [[539, 0, 0]]
    }, 
    {
      "op": "where", 
      "name": "maskrcnn1_multiperclassdecoder0_where1", 
      "inputs": [[540, 0, 0], [539, 0, 0], [630, 0, 0]]
    }, 
    {
      "op": "transpose", 
      "name": "maskrcnn1_transpose1", 
      "attrs": {"axes": "(0, 2, 1)"}, 
      "inputs": [[631, 0, 0]]
    }, 
    {
      "op": "Reshape", 
      "name": "maskrcnn1_reshape5", 
      "attrs": {"shape": "(0, 0, 0, 1)"}, 
      "inputs": [[632, 0, 0]]
    }, 
    {
      "op": "SliceChannel", 
      "name": "maskrcnn1_split2", 
      "attrs": {
        "axis": "0", 
        "num_outputs": "1", 
        "squeeze_axis": "True"
      }, 
      "inputs": [[633, 0, 0]]
    }, 
    {
      "op": "null", 
      "name": "maskrcnn1_dense1_weight", 
      "attrs": {
        "__dtype__": "0", 
        "__init__": "[\"normal\", {\"sigma\": 0.001}]", 
        "__lr_mult__": "1.0", 
        "__shape__": "(320, 2048)", 
        "__storage_type__": "0", 
        "__wd_mult__": "1.0"
      }, 
      "inputs": []
    }, 
    {
      "op": "null", 
      "name": "maskrcnn1_dense1_bias", 
      "attrs": {
        "__dtype__": "0", 
        "__init__": "zeros", 
        "__lr_mult__": "1.0", 
        "__shape__": "(320,)", 
        "__storage_type__": "0", 
        "__wd_mult__": "1.0"
      }, 
      "inputs": []
    }, 
    {
      "op": "FullyConnected", 
      "name": "maskrcnn1_dense1_fwd", 
      "attrs": {
        "flatten": "True", 
        "no_bias": "False", 
        "num_hidden": "320"
      }, 
      "inputs": [[533, 0, 0], [635, 0, 0], [636, 0, 0]]
    }, 
    {
      "op": "Reshape", 
      "name": "maskrcnn1_reshape3", 
      "attrs": {"shape": "(1, 1000, 80, 4)"}, 
      "inputs": [[637, 0, 0]]
    }, 
    {
      "op": "transpose", 
      "name": "maskrcnn1_transpose2", 
      "attrs": {"axes": "(0, 2, 1, 3)"}, 
      "inputs": [[638, 0, 0]]
    }, 
    {
      "op": "SliceChannel", 
      "name": "maskrcnn1_split3", 
      "attrs": {
        "axis": "0", 
        "num_outputs": "1", 
        "squeeze_axis": "True"
      }, 
      "inputs": [[639, 0, 0]]
    }, 
    {
      "op": "SliceChannel", 
      "name": "maskrcnn1_normalizedboxcenterdecoder0_split1", 
      "attrs": {
        "axis": "-1", 
        "num_outputs": "4"
      }, 
      "inputs": [[640, 0, 0]]
    }, 
    {
      "op": "_mul_scalar", 
      "name": "maskrcnn1_normalizedboxcenterdecoder0__mulscalar0", 
      "attrs": {"scalar": "0.1"}, 
      "inputs": [[641, 0, 0]]
    }, 
    {
      "op": "_plus_scalar", 
      "name": "maskrcnn1_normalizedboxcenterdecoder0__plusscalar0", 
      "attrs": {"scalar": "0.0"}, 
      "inputs": [[642, 0, 0]]
    }, 
    {
      "op": "SliceChannel", 
      "name": "maskrcnn1_split0", 
      "attrs": {
        "axis": "0", 
        "num_outputs": "1", 
        "squeeze_axis": "False"
      }, 
      "inputs": [[446, 0, 0]]
    }, 
    {
      "op": "SliceChannel", 
      "name": "maskrcnn1_bboxcornertocenter0_split0", 
      "attrs": {
        "axis": "-1", 
        "num_outputs": "4"
      }, 
      "inputs": [[644, 0, 0]]
    }, 
    {
      "op": "elemwise_sub", 
      "name": "maskrcnn1_bboxcornertocenter0__minus0", 
      "inputs": [[645, 2, 0], [645, 0, 0]]
    }, 
    {
      "op": "_div_scalar", 
      "name": "maskrcnn1_bboxcornertocenter0__divscalar0", 
      "attrs": {"scalar": "2"}, 
      "inputs": [[646, 0, 0]]
    }, 
    {
      "op": "elemwise_add", 
      "name": "maskrcnn1_bboxcornertocenter0__plus0", 
      "inputs": [[645, 0, 0], [647, 0, 0]]
    }, 
    {
      "op": "elemwise_sub", 
      "name": "maskrcnn1_bboxcornertocenter0__minus1", 
      "inputs": [[645, 3, 0], [645, 1, 0]]
    }, 
    {
      "op": "_div_scalar", 
      "name": "maskrcnn1_bboxcornertocenter0__divscalar1", 
      "attrs": {"scalar": "2"}, 
      "inputs": [[649, 0, 0]]
    }, 
    {
      "op": "elemwise_add", 
      "name": "maskrcnn1_bboxcornertocenter0__plus1", 
      "inputs": [[645, 1, 0], [650, 0, 0]]
    }, 
    {
      "op": "Concat", 
      "name": "maskrcnn1_bboxcornertocenter0_concat0", 
      "attrs": {
        "dim": "-1", 
        "num_args": "4"
      }, 
      "inputs": [[648, 0, 0], [651, 0, 0], [646, 0, 0], [649, 0, 0]]
    }, 
    {
      "op": "SliceChannel", 
      "name": "maskrcnn1_normalizedboxcenterdecoder0_split0", 
      "attrs": {
        "axis": "-1", 
        "num_outputs": "4"
      }, 
      "inputs": [[652, 0, 0]]
    }, 
    {
      "op": "broadcast_mul", 
      "name": "maskrcnn1_normalizedboxcenterdecoder0_broadcast_mul0", 
      "inputs": [[643, 0, 0], [653, 2, 0]]
    }, 
    {
      "op": "broadcast_add", 
      "name": "maskrcnn1_normalizedboxcenterdecoder0_broadcast_add0", 
      "inputs": [[654, 0, 0], [653, 0, 0]]
    }, 
    {
      "op": "_mul_scalar", 
      "name": "maskrcnn1_normalizedboxcenterdecoder0__mulscalar2", 
      "attrs": {"scalar": "0.2"}, 
      "inputs": [[641, 2, 0]]
    }, 
    {
      "op": "_plus_scalar", 
      "name": "maskrcnn1_normalizedboxcenterdecoder0__plusscalar2", 
      "attrs": {"scalar": "0.0"}, 
      "inputs": [[656, 0, 0]]
    }, 
    {
      "op": "exp", 
      "name": "maskrcnn1_normalizedboxcenterdecoder0_exp0", 
      "inputs": [[657, 0, 0]]
    }, 
    {
      "op": "_minimum_scalar", 
      "name": "maskrcnn1_normalizedboxcenterdecoder0__minimumscalar0", 
      "attrs": {"scalar": "4.42"}, 
      "inputs": [[658, 0, 0]]
    }, 
    {
      "op": "broadcast_mul", 
      "name": "maskrcnn1_normalizedboxcenterdecoder0_broadcast_mul2", 
      "inputs": [[659, 0, 0], [653, 2, 0]]
    }, 
    {
      "op": "_div_scalar", 
      "name": "maskrcnn1_normalizedboxcenterdecoder0__divscalar0", 
      "attrs": {"scalar": "2"}, 
      "inputs": [[660, 0, 0]]
    }, 
    {
      "op": "elemwise_sub", 
      "name": "maskrcnn1_normalizedboxcenterdecoder0__minus0", 
      "inputs": [[655, 0, 0], [661, 0, 0]]
    }, 
    {
      "op": "_mul_scalar", 
      "name": "maskrcnn1_normalizedboxcenterdecoder0__mulscalar1", 
      "attrs": {"scalar": "0.1"}, 
      "inputs": [[641, 1, 0]]
    }, 
    {
      "op": "_plus_scalar", 
      "name": "maskrcnn1_normalizedboxcenterdecoder0__plusscalar1", 
      "attrs": {"scalar": "0.0"}, 
      "inputs": [[663, 0, 0]]
    }, 
    {
      "op": "broadcast_mul", 
      "name": "maskrcnn1_normalizedboxcenterdecoder0_broadcast_mul1", 
      "inputs": [[664, 0, 0], [653, 3, 0]]
    }, 
    {
      "op": "broadcast_add", 
      "name": "maskrcnn1_normalizedboxcenterdecoder0_broadcast_add1", 
      "inputs": [[665, 0, 0], [653, 1, 0]]
    }, 
    {
      "op": "_mul_scalar", 
      "name": "maskrcnn1_normalizedboxcenterdecoder0__mulscalar3", 
      "attrs": {"scalar": "0.2"}, 
      "inputs": [[641, 3, 0]]
    }, 
    {
      "op": "_plus_scalar", 
      "name": "maskrcnn1_normalizedboxcenterdecoder0__plusscalar3", 
      "attrs": {"scalar": "0.0"}, 
      "inputs": [[667, 0, 0]]
    }, 
    {
      "op": "exp", 
      "name": "maskrcnn1_normalizedboxcenterdecoder0_exp1", 
      "inputs": [[668, 0, 0]]
    }, 
    {
      "op": "_minimum_scalar", 
      "name": "maskrcnn1_normalizedboxcenterdecoder0__minimumscalar1", 
      "attrs": {"scalar": "4.42"}, 
      "inputs": [[669, 0, 0]]
    }, 
    {
      "op": "broadcast_mul", 
      "name": "maskrcnn1_normalizedboxcenterdecoder0_broadcast_mul3", 
      "inputs": [[670, 0, 0], [653, 3, 0]]
    }, 
    {
      "op": "_div_scalar", 
      "name": "maskrcnn1_normalizedboxcenterdecoder0__divscalar1", 
      "attrs": {"scalar": "2"}, 
      "inputs": [[671, 0, 0]]
    }, 
    {
      "op": "elemwise_sub", 
      "name": "maskrcnn1_normalizedboxcenterdecoder0__minus1", 
      "inputs": [[666, 0, 0], [672, 0, 0]]
    }, 
    {
      "op": "elemwise_add", 
      "name": "maskrcnn1_normalizedboxcenterdecoder0__plus0", 
      "inputs": [[655, 0, 0], [661, 0, 0]]
    }, 
    {
      "op": "elemwise_add", 
      "name": "maskrcnn1_normalizedboxcenterdecoder0__plus1", 
      "inputs": [[666, 0, 0], [672, 0, 0]]
    }, 
    {
      "op": "Concat", 
      "name": "maskrcnn1_normalizedboxcenterdecoder0_concat0", 
      "attrs": {
        "dim": "-1", 
        "num_args": "4"
      }, 
      "inputs": [[662, 0, 0], [673, 0, 0], [674, 0, 0], [675, 0, 0]]
    }, 
    {
      "op": "Concat", 
      "name": "maskrcnn1_concat1", 
      "attrs": {
        "dim": "-1", 
        "num_args": "3"
      }, 
      "inputs": [[629, 0, 0], [634, 0, 0], [676, 0, 0]]
    }, 
    {
      "op": "_contrib_box_nms", 
      "name": "maskrcnn1_box_nms0", 
      "attrs": {
        "coord_start": "2", 
        "force_suppress": "True", 
        "id_index": "0", 
        "overlap_thresh": "0.5", 
        "score_index": "1", 
        "topk": "-1", 
        "valid_thresh": "0.0001"
      }, 
      "inputs": [[677, 0, 0]]
    }, 
    {
      "op": "Reshape", 
      "name": "maskrcnn1_reshape6", 
      "attrs": {"shape": "(-3, 0)"}, 
      "inputs": [[678, 0, 0]]
    }, 
    {
      "op": "stack", 
      "name": "maskrcnn1_stack0", 
      "attrs": {
        "axis": "0", 
        "num_args": "1"
      }, 
      "inputs": [[679, 0, 0]]
    }, 
    {
      "op": "slice_axis", 
      "name": "maskrcnn1_slice_axis0", 
      "attrs": {
        "axis": "-1", 
        "begin": "0", 
        "end": "1"
      }, 
      "inputs": [[680, 0, 0]]
    }, 
    {
      "op": "_arange", 
      "name": "maskrcnn1__arange1", 
      "attrs": {
        "dtype": "float32", 
        "infer_range": "False", 
        "repeat": "1", 
        "start": "0", 
        "step": "1.0", 
        "stop": "1"
      }, 
      "inputs": []
    }, 
    {
      "op": "repeat", 
      "name": "maskrcnn1_repeat1", 
      "attrs": {"repeats": "1000"}, 
      "inputs": [[682, 0, 0]]
    }, 
    {
      "op": "slice_axis", 
      "name": "maskrcnn1_slice_axis1", 
      "attrs": {
        "axis": "-1", 
        "begin": "1", 
        "end": "2"
      }, 
      "inputs": [[680, 0, 0]]
    }, 
    {
      "op": "squeeze", 
      "name": "maskrcnn1_squeeze0", 
      "attrs": {"axis": "-1"}, 
      "inputs": [[684, 0, 0]]
    }, 
    {
      "op": "argsort", 
      "name": "maskrcnn1_argsort0", 
      "attrs": {
        "axis": "1", 
        "is_ascend": "False"
      }, 
      "inputs": [[685, 0, 0]]
    }, 
    {
      "op": "slice_axis", 
      "name": "maskrcnn1_slice_axis3", 
      "attrs": {
        "axis": "1", 
        "begin": "0", 
        "end": "1000"
      }, 
      "inputs": [[686, 0, 0]]
    }, 
    {
      "op": "Reshape", 
      "name": "maskrcnn1_reshape7", 
      "attrs": {"shape": "(-1,)"}, 
      "inputs": [[687, 0, 0]]
    }, 
    {
      "op": "stack", 
      "name": "maskrcnn1_stack1", 
      "attrs": {
        "axis": "0", 
        "num_args": "2"
      }, 
      "inputs": [[683, 0, 0], [688, 0, 0]]
    }, 
    {
      "op": "gather_nd", 
      "name": "maskrcnn1_gather_nd0", 
      "inputs": [[681, 0, 0], [689, 0, 0]]
    }, 
    {
      "op": "Reshape", 
      "name": "maskrcnn1_reshape8", 
      "attrs": {"shape": "(-4, 1, 1000, 1)"}, 
      "inputs": [[690, 0, 0]]
    }, 
    {
      "op": "gather_nd", 
      "name": "maskrcnn1_gather_nd1", 
      "inputs": [[684, 0, 0], [689, 0, 0]]
    }, 
    {
      "op": "Reshape", 
      "name": "maskrcnn1_reshape9", 
      "attrs": {"shape": "(-4, 1, 1000, 1)"}, 
      "inputs": [[692, 0, 0]]
    }, 
    {
      "op": "slice_axis", 
      "name": "maskrcnn1_slice_axis2", 
      "attrs": {
        "axis": "-1", 
        "begin": "2", 
        "end": "6"
      }, 
      "inputs": [[680, 0, 0]]
    }, 
    {
      "op": "gather_nd", 
      "name": "maskrcnn1_gather_nd2", 
      "inputs": [[694, 0, 0], [689, 0, 0]]
    }, 
    {
      "op": "Reshape", 
      "name": "maskrcnn1_reshape10", 
      "attrs": {"shape": "(-4, 1, 1000, 4)"}, 
      "inputs": [[695, 0, 0]]
    }, 
    {
      "op": "Reshape", 
      "name": "maskrcnn1_reshape11", 
      "attrs": {"shape": "(-1, 1)"}, 
      "inputs": [[683, 0, 0]]
    }, 
    {
      "op": "Reshape", 
      "name": "maskrcnn1_reshape12", 
      "attrs": {"shape": "(-3, 0)"}, 
      "inputs": [[696, 0, 0]]
    }, 
    {
      "op": "Concat", 
      "name": "maskrcnn1_concat2", 
      "attrs": {
        "dim": "-1", 
        "num_args": "2"
      }, 
      "inputs": [[697, 0, 0], [698, 0, 0]]
    }, 
    {
      "op": "BlockGrad", 
      "name": "maskrcnn1_stop_gradient1", 
      "inputs": [[699, 0, 0]]
    }, 
    {
      "op": "_contrib_ROIAlign", 
      "name": "maskrcnn1_roialign1", 
      "attrs": {
        "pooled_size": "(14, 14)", 
        "sample_ratio": "2", 
        "spatial_scale": "0.0625"
      }, 
      "inputs": [[360, 0, 0], [700, 0, 0]]
    }, 
    {
      "op": "Convolution", 
      "name": "resnetv1b_layers4_conv0_fwd", 
      "attrs": {
        "dilate": "(1, 1)", 
        "kernel": "(1, 1)", 
        "layout": "NCHW", 
        "no_bias": "True", 
        "num_filter": "512", 
        "num_group": "1", 
        "pad": "(0, 0)", 
        "stride": "(1, 1)"
      }, 
      "inputs": [[701, 0, 0], [451, 0, 0]]
    }, 
    {
      "op": "BatchNorm", 
      "name": "resnetv1b_layers4_batchnorm0_fwd", 
      "attrs": {
        "axis": "1", 
        "eps": "1e-05", 
        "fix_gamma": "False", 
        "momentum": "0.9", 
        "use_global_stats": "True"
      }, 
      "inputs": [[702, 0, 0], [453, 0, 0], [454, 0, 0], [455, 0, 4], [456, 0, 4]]
    }, 
    {
      "op": "Activation", 
      "name": "resnetv1b_layers4_relu0_fwd", 
      "attrs": {"act_type": "relu"}, 
      "inputs": [[703, 0, 0]]
    }, 
    {
      "op": "Convolution", 
      "name": "resnetv1b_layers4_conv1_fwd", 
      "attrs": {
        "dilate": "(1, 1)", 
        "kernel": "(3, 3)", 
        "layout": "NCHW", 
        "no_bias": "True", 
        "num_filter": "512", 
        "num_group": "1", 
        "pad": "(1, 1)", 
        "stride": "(2, 2)"
      }, 
      "inputs": [[704, 0, 0], [459, 0, 0]]
    }, 
    {
      "op": "BatchNorm", 
      "name": "resnetv1b_layers4_batchnorm1_fwd", 
      "attrs": {
        "axis": "1", 
        "eps": "1e-05", 
        "fix_gamma": "False", 
        "momentum": "0.9", 
        "use_global_stats": "True"
      }, 
      "inputs": [[705, 0, 0], [461, 0, 0], [462, 0, 0], [463, 0, 4], [464, 0, 4]]
    }, 
    {
      "op": "Activation", 
      "name": "resnetv1b_layers4_relu1_fwd", 
      "attrs": {"act_type": "relu"}, 
      "inputs": [[706, 0, 0]]
    }, 
    {
      "op": "Convolution", 
      "name": "resnetv1b_layers4_conv2_fwd", 
      "attrs": {
        "dilate": "(1, 1)", 
        "kernel": "(1, 1)", 
        "layout": "NCHW", 
        "no_bias": "True", 
        "num_filter": "2048", 
        "num_group": "1", 
        "pad": "(0, 0)", 
        "stride": "(1, 1)"
      }, 
      "inputs": [[707, 0, 0], [467, 0, 0]]
    }, 
    {
      "op": "BatchNorm", 
      "name": "resnetv1b_layers4_batchnorm2_fwd", 
      "attrs": {
        "axis": "1", 
        "eps": "1e-05", 
        "fix_gamma": "False", 
        "momentum": "0.9", 
        "use_global_stats": "True"
      }, 
      "inputs": [[708, 0, 0], [469, 0, 0], [470, 0, 0], [471, 0, 4], [472, 0, 4]]
    }, 
    {
      "op": "Convolution", 
      "name": "resnetv1b_down4_conv0_fwd", 
      "attrs": {
        "dilate": "(1, 1)", 
        "kernel": "(1, 1)", 
        "layout": "NCHW", 
        "no_bias": "True", 
        "num_filter": "2048", 
        "num_group": "1", 
        "pad": "(0, 0)", 
        "stride": "(2, 2)"
      }, 
      "inputs": [[701, 0, 0], [474, 0, 0]]
    }, 
    {
      "op": "BatchNorm", 
      "name": "resnetv1b_down4_batchnorm0_fwd", 
      "attrs": {
        "axis": "1", 
        "eps": "1e-05", 
        "fix_gamma": "False", 
        "momentum": "0.9", 
        "use_global_stats": "True"
      }, 
      "inputs": [[710, 0, 0], [476, 0, 0], [477, 0, 0], [478, 0, 4], [479, 0, 4]]
    }, 
    {
      "op": "elemwise_add", 
      "name": "resnetv1b_layers4_bottleneckv1b0__plus0", 
      "inputs": [[709, 0, 0], [711, 0, 0]]
    }, 
    {
      "op": "Activation", 
      "name": "resnetv1b_layers4_relu2_fwd", 
      "attrs": {"act_type": "relu"}, 
      "inputs": [[712, 0, 0]]
    }, 
    {
      "op": "Convolution", 
      "name": "resnetv1b_layers4_conv3_fwd", 
      "attrs": {
        "dilate": "(1, 1)", 
        "kernel": "(1, 1)", 
        "layout": "NCHW", 
        "no_bias": "True", 
        "num_filter": "512", 
        "num_group": "1", 
        "pad": "(0, 0)", 
        "stride": "(1, 1)"
      }, 
      "inputs": [[713, 0, 0], [483, 0, 0]]
    }, 
    {
      "op": "BatchNorm", 
      "name": "resnetv1b_layers4_batchnorm3_fwd", 
      "attrs": {
        "axis": "1", 
        "eps": "1e-05", 
        "fix_gamma": "False", 
        "momentum": "0.9", 
        "use_global_stats": "True"
      }, 
      "inputs": [[714, 0, 0], [485, 0, 0], [486, 0, 0], [487, 0, 4], [488, 0, 4]]
    }, 
    {
      "op": "Activation", 
      "name": "resnetv1b_layers4_relu3_fwd", 
      "attrs": {"act_type": "relu"}, 
      "inputs": [[715, 0, 0]]
    }, 
    {
      "op": "Convolution", 
      "name": "resnetv1b_layers4_conv4_fwd", 
      "attrs": {
        "dilate": "(1, 1)", 
        "kernel": "(3, 3)", 
        "layout": "NCHW", 
        "no_bias": "True", 
        "num_filter": "512", 
        "num_group": "1", 
        "pad": "(1, 1)", 
        "stride": "(1, 1)"
      }, 
      "inputs": [[716, 0, 0], [491, 0, 0]]
    }, 
    {
      "op": "BatchNorm", 
      "name": "resnetv1b_layers4_batchnorm4_fwd", 
      "attrs": {
        "axis": "1", 
        "eps": "1e-05", 
        "fix_gamma": "False", 
        "momentum": "0.9", 
        "use_global_stats": "True"
      }, 
      "inputs": [[717, 0, 0], [493, 0, 0], [494, 0, 0], [495, 0, 4], [496, 0, 4]]
    }, 
    {
      "op": "Activation", 
      "name": "resnetv1b_layers4_relu4_fwd", 
      "attrs": {"act_type": "relu"}, 
      "inputs": [[718, 0, 0]]
    }, 
    {
      "op": "Convolution", 
      "name": "resnetv1b_layers4_conv5_fwd", 
      "attrs": {
        "dilate": "(1, 1)", 
        "kernel": "(1, 1)", 
        "layout": "NCHW", 
        "no_bias": "True", 
        "num_filter": "2048", 
        "num_group": "1", 
        "pad": "(0, 0)", 
        "stride": "(1, 1)"
      }, 
      "inputs": [[719, 0, 0], [499, 0, 0]]
    }, 
    {
      "op": "BatchNorm", 
      "name": "resnetv1b_layers4_batchnorm5_fwd", 
      "attrs": {
        "axis": "1", 
        "eps": "1e-05", 
        "fix_gamma": "False", 
        "momentum": "0.9", 
        "use_global_stats": "True"
      }, 
      "inputs": [[720, 0, 0], [501, 0, 0], [502, 0, 0], [503, 0, 4], [504, 0, 4]]
    }, 
    {
      "op": "elemwise_add", 
      "name": "resnetv1b_layers4_bottleneckv1b1__plus0", 
      "inputs": [[721, 0, 0], [713, 0, 0]]
    }, 
    {
      "op": "Activation", 
      "name": "resnetv1b_layers4_relu5_fwd", 
      "attrs": {"act_type": "relu"}, 
      "inputs": [[722, 0, 0]]
    }, 
    {
      "op": "Convolution", 
      "name": "resnetv1b_layers4_conv6_fwd", 
      "attrs": {
        "dilate": "(1, 1)", 
        "kernel": "(1, 1)", 
        "layout": "NCHW", 
        "no_bias": "True", 
        "num_filter": "512", 
        "num_group": "1", 
        "pad": "(0, 0)", 
        "stride": "(1, 1)"
      }, 
      "inputs": [[723, 0, 0], [508, 0, 0]]
    }, 
    {
      "op": "BatchNorm", 
      "name": "resnetv1b_layers4_batchnorm6_fwd", 
      "attrs": {
        "axis": "1", 
        "eps": "1e-05", 
        "fix_gamma": "False", 
        "momentum": "0.9", 
        "use_global_stats": "True"
      }, 
      "inputs": [[724, 0, 0], [510, 0, 0], [511, 0, 0], [512, 0, 4], [513, 0, 4]]
    }, 
    {
      "op": "Activation", 
      "name": "resnetv1b_layers4_relu6_fwd", 
      "attrs": {"act_type": "relu"}, 
      "inputs": [[725, 0, 0]]
    }, 
    {
      "op": "Convolution", 
      "name": "resnetv1b_layers4_conv7_fwd", 
      "attrs": {
        "dilate": "(1, 1)", 
        "kernel": "(3, 3)", 
        "layout": "NCHW", 
        "no_bias": "True", 
        "num_filter": "512", 
        "num_group": "1", 
        "pad": "(1, 1)", 
        "stride": "(1, 1)"
      }, 
      "inputs": [[726, 0, 0], [516, 0, 0]]
    }, 
    {
      "op": "BatchNorm", 
      "name": "resnetv1b_layers4_batchnorm7_fwd", 
      "attrs": {
        "axis": "1", 
        "eps": "1e-05", 
        "fix_gamma": "False", 
        "momentum": "0.9", 
        "use_global_stats": "True"
      }, 
      "inputs": [[727, 0, 0], [518, 0, 0], [519, 0, 0], [520, 0, 4], [521, 0, 4]]
    }, 
    {
      "op": "Activation", 
      "name": "resnetv1b_layers4_relu7_fwd", 
      "attrs": {"act_type": "relu"}, 
      "inputs": [[728, 0, 0]]
    }, 
    {
      "op": "Convolution", 
      "name": "resnetv1b_layers4_conv8_fwd", 
      "attrs": {
        "dilate": "(1, 1)", 
        "kernel": "(1, 1)", 
        "layout": "NCHW", 
        "no_bias": "True", 
        "num_filter": "2048", 
        "num_group": "1", 
        "pad": "(0, 0)", 
        "stride": "(1, 1)"
      }, 
      "inputs": [[729, 0, 0], [524, 0, 0]]
    }, 
    {
      "op": "BatchNorm", 
      "name": "resnetv1b_layers4_batchnorm8_fwd", 
      "attrs": {
        "axis": "1", 
        "eps": "1e-05", 
        "fix_gamma": "False", 
        "momentum": "0.9", 
        "use_global_stats": "True"
      }, 
      "inputs": [[730, 0, 0], [526, 0, 0], [527, 0, 0], [528, 0, 4], [529, 0, 4]]
    }, 
    {
      "op": "elemwise_add", 
      "name": "resnetv1b_layers4_bottleneckv1b2__plus0", 
      "inputs": [[731, 0, 0], [723, 0, 0]]
    }, 
    {
      "op": "Activation", 
      "name": "resnetv1b_layers4_relu8_fwd", 
      "attrs": {"act_type": "relu"}, 
      "inputs": [[732, 0, 0]]
    }, 
    {
      "op": "null", 
      "name": "maskrcnn1_mask0_conv0_weight", 
      "attrs": {
        "__dtype__": "0", 
        "__init__": "[\"xavier\", {\"rnd_type\": \"gaussian\", \"factor_type\": \"out\", \"magnitude\": 2}]", 
        "__lr_mult__": "1.0", 
        "__shape__": "(2048, 256, 2, 2)", 
        "__storage_type__": "0", 
        "__wd_mult__": "1.0"
      }, 
      "inputs": []
    }, 
    {
      "op": "null", 
      "name": "maskrcnn1_mask0_conv0_bias", 
      "attrs": {
        "__dtype__": "0", 
        "__init__": "zeros", 
        "__lr_mult__": "1.0", 
        "__shape__": "(256,)", 
        "__storage_type__": "0", 
        "__wd_mult__": "1.0"
      }, 
      "inputs": []
    }, 
    {
      "op": "Deconvolution", 
      "name": "maskrcnn1_mask0_conv0_fwd", 
      "attrs": {
        "adj": "(0, 0)", 
        "dilate": "(1, 1)", 
        "kernel": "(2, 2)", 
        "layout": "NCHW", 
        "no_bias": "False", 
        "num_filter": "256", 
        "num_group": "1", 
        "pad": "(0, 0)", 
        "stride": "(2, 2)"
      }, 
      "inputs": [[733, 0, 0], [734, 0, 0], [735, 0, 0]]
    }, 
    {
      "op": "relu", 
      "name": "maskrcnn1_mask0_relu0", 
      "inputs": [[736, 0, 0]]
    }, 
    {
      "op": "null", 
      "name": "maskrcnn1_mask0_conv1_weight", 
      "attrs": {
        "__dtype__": "0", 
        "__init__": "[\"xavier\", {\"rnd_type\": \"gaussian\", \"factor_type\": \"out\", \"magnitude\": 2}]", 
        "__lr_mult__": "1.0", 
        "__shape__": "(80, 256, 1, 1)", 
        "__storage_type__": "0", 
        "__wd_mult__": "1.0"
      }, 
      "inputs": []
    }, 
    {
      "op": "null", 
      "name": "maskrcnn1_mask0_conv1_bias", 
      "attrs": {
        "__dtype__": "0", 
        "__init__": "zeros", 
        "__lr_mult__": "1.0", 
        "__shape__": "(80,)", 
        "__storage_type__": "0", 
        "__wd_mult__": "1.0"
      }, 
      "inputs": []
    }, 
    {
      "op": "Convolution", 
      "name": "maskrcnn1_mask0_conv1_fwd", 
      "attrs": {
        "dilate": "(1, 1)", 
        "kernel": "(1, 1)", 
        "layout": "NCHW", 
        "no_bias": "False", 
        "num_filter": "80", 
        "num_group": "1", 
        "pad": "(0, 0)", 
        "stride": "(1, 1)"
      }, 
      "inputs": [[737, 0, 0], [738, 0, 0], [739, 0, 0]]
    }, 
    {
      "op": "Reshape", 
      "name": "maskrcnn1_mask0_reshape0", 
      "attrs": {"shape": "(-4, 1, -1, 0, 0, 0)"}, 
      "inputs": [[740, 0, 0]]
    }, 
    {
      "op": "_arange", 
      "name": "maskrcnn1__arange2", 
      "attrs": {
        "dtype": "float32", 
        "infer_range": "False", 
        "repeat": "1", 
        "start": "0", 
        "step": "1.0", 
        "stop": "1"
      }, 
      "inputs": []
    }, 
    {
      "op": "repeat", 
      "name": "maskrcnn1_repeat2", 
      "attrs": {"repeats": "1000"}, 
      "inputs": [[742, 0, 0]]
    }, 
    {
      "op": "_arange", 
      "name": "maskrcnn1__arange3", 
      "attrs": {
        "dtype": "float32", 
        "infer_range": "False", 
        "repeat": "1", 
        "start": "0", 
        "step": "1.0", 
        "stop": "1000"
      }, 
      "inputs": []
    }, 
    {
      "op": "tile", 
      "name": "maskrcnn1_tile0", 
      "attrs": {"reps": "1"}, 
      "inputs": [[744, 0, 0]]
    }, 
    {
      "op": "Reshape", 
      "name": "maskrcnn1_reshape13", 
      "attrs": {"shape": "(-1,)"}, 
      "inputs": [[691, 0, 0]]
    }, 
    {
      "op": "clip", 
      "name": "maskrcnn1_clip0", 
      "attrs": {
        "a_max": "80", 
        "a_min": "0"
      }, 
      "inputs": [[746, 0, 0]]
    }, 
    {
      "op": "stack", 
      "name": "maskrcnn1_stack2", 
      "attrs": {
        "axis": "0", 
        "num_args": "3"
      }, 
      "inputs": [[743, 0, 0], [745, 0, 0], [747, 0, 0]]
    }, 
    {
      "op": "gather_nd", 
      "name": "maskrcnn1_gather_nd3", 
      "inputs": [[741, 0, 0], [748, 0, 0]]
    }, 
    {
      "op": "Reshape", 
      "name": "maskrcnn1_reshape14", 
      "attrs": {"shape": "(-4, 1, 1000, 0, 0)"}, 
      "inputs": [[749, 0, 0]]
    }, 
    {
      "op": "sigmoid", 
      "name": "maskrcnn1_sigmoid0", 
      "inputs": [[750, 0, 0]]
    }
  ], 
  "arg_nodes": [
    0, 
    1, 
    3, 
    6, 
    8, 
    9, 
    10, 
    11, 
    15, 
    17, 
    18, 
    19, 
    20, 
    23, 
    25, 
    26, 
    27, 
    28, 
    31, 
    33, 
    34, 
    35, 
    36, 
    38, 
    40, 
    41, 
    42, 
    43, 
    47, 
    49, 
    50, 
    51, 
    52, 
    55, 
    57, 
    58, 
    59, 
    60, 
    63, 
    65, 
    66, 
    67, 
    68, 
    72, 
    74, 
    75, 
    76, 
    77, 
    80, 
    82, 
    83, 
    84, 
    85, 
    88, 
    90, 
    91, 
    92, 
    93, 
    97, 
    99, 
    100, 
    101, 
    102, 
    105, 
    107, 
    108, 
    109, 
    110, 
    113, 
    115, 
    116, 
    117, 
    118, 
    120, 
    122, 
    123, 
    124, 
    125, 
    129, 
    131, 
    132, 
    133, 
    134, 
    137, 
    139, 
    140, 
    141, 
    142, 
    145, 
    147, 
    148, 
    149, 
    150, 
    154, 
    156, 
    157, 
    158, 
    159, 
    162, 
    164, 
    165, 
    166, 
    167, 
    170, 
    172, 
    173, 
    174, 
    175, 
    179, 
    181, 
    182, 
    183, 
    184, 
    187, 
    189, 
    190, 
    191, 
    192, 
    195, 
    197, 
    198, 
    199, 
    200, 
    204, 
    206, 
    207, 
    208, 
    209, 
    212, 
    214, 
    215, 
    216, 
    217, 
    220, 
    222, 
    223, 
    224, 
    225, 
    227, 
    229, 
    230, 
    231, 
    232, 
    236, 
    238, 
    239, 
    240, 
    241, 
    244, 
    246, 
    247, 
    248, 
    249, 
    252, 
    254, 
    255, 
    256, 
    257, 
    261, 
    263, 
    264, 
    265, 
    266, 
    269, 
    271, 
    272, 
    273, 
    274, 
    277, 
    279, 
    280, 
    281, 
    282, 
    286, 
    288, 
    289, 
    290, 
    291, 
    294, 
    296, 
    297, 
    298, 
    299, 
    302, 
    304, 
    305, 
    306, 
    307, 
    311, 
    313, 
    314, 
    315, 
    316, 
    319, 
    321, 
    322, 
    323, 
    324, 
    327, 
    329, 
    330, 
    331, 
    332, 
    336, 
    338, 
    339, 
    340, 
    341, 
    344, 
    346, 
    347, 
    348, 
    349, 
    352, 
    354, 
    355, 
    356, 
    357, 
    364, 
    365, 
    368, 
    369, 
    377, 
    431, 
    432, 
    451, 
    453, 
    454, 
    455, 
    456, 
    459, 
    461, 
    462, 
    463, 
    464, 
    467, 
    469, 
    470, 
    471, 
    472, 
    474, 
    476, 
    477, 
    478, 
    479, 
    483, 
    485, 
    486, 
    487, 
    488, 
    491, 
    493, 
    494, 
    495, 
    496, 
    499, 
    501, 
    502, 
    503, 
    504, 
    508, 
    510, 
    511, 
    512, 
    513, 
    516, 
    518, 
    519, 
    520, 
    521, 
    524, 
    526, 
    527, 
    528, 
    529, 
    534, 
    535, 
    635, 
    636, 
    734, 
    735, 
    738, 
    739
  ], 
  "node_row_ptr": [
    0, 
    1, 
    2, 
    3, 
    4, 
    5, 
    6, 
    7, 
    8, 
    9, 
    10, 
    11, 
    12, 
    15, 
    16, 
    17, 
    18, 
    19, 
    20, 
    21, 
    22, 
    23, 
    26, 
    27, 
    28, 
    29, 
    30, 
    31, 
    32, 
    33, 
    36, 
    37, 
    38, 
    39, 
    40, 
    41, 
    42, 
    43, 
    46, 
    47, 
    48, 
    49, 
    50, 
    51, 
    52, 
    55, 
    56, 
    57, 
    58, 
    59, 
    60, 
    61, 
    62, 
    63, 
    66, 
    67, 
    68, 
    69, 
    70, 
    71, 
    72, 
    73, 
    76, 
    77, 
    78, 
    79, 
    80, 
    81, 
    82, 
    83, 
    86, 
    87, 
    88, 
    89, 
    90, 
    91, 
    92, 
    93, 
    94, 
    97, 
    98, 
    99, 
    100, 
    101, 
    102, 
    103, 
    104, 
    107, 
    108, 
    109, 
    110, 
    111, 
    112, 
    113, 
    114, 
    117, 
    118, 
    119, 
    120, 
    121, 
    122, 
    123, 
    124, 
    125, 
    128, 
    129, 
    130, 
    131, 
    132, 
    133, 
    134, 
    135, 
    138, 
    139, 
    140, 
    141, 
    142, 
    143, 
    144, 
    145, 
    148, 
    149, 
    150, 
    151, 
    152, 
    153, 
    154, 
    157, 
    158, 
    159, 
    160, 
    161, 
    162, 
    163, 
    164, 
    165, 
    168, 
    169, 
    170, 
    171, 
    172, 
    173, 
    174, 
    175, 
    178, 
    179, 
    180, 
    181, 
    182, 
    183, 
    184, 
    185, 
    188, 
    189, 
    190, 
    191, 
    192, 
    193, 
    194, 
    195, 
    196, 
    199, 
    200, 
    201, 
    202, 
    203, 
    204, 
    205, 
    206, 
    209, 
    210, 
    211, 
    212, 
    213, 
    214, 
    215, 
    216, 
    219, 
    220, 
    221, 
    222, 
    223, 
    224, 
    225, 
    226, 
    227, 
    230, 
    231, 
    232, 
    233, 
    234, 
    235, 
    236, 
    237, 
    240, 
    241, 
    242, 
    243, 
    244, 
    245, 
    246, 
    247, 
    250, 
    251, 
    252, 
    253, 
    254, 
    255, 
    256, 
    257, 
    258, 
    261, 
    262, 
    263, 
    264, 
    265, 
    266, 
    267, 
    268, 
    271, 
    272, 
    273, 
    274, 
    275, 
    276, 
    277, 
    278, 
    281, 
    282, 
    283, 
    284, 
    285, 
    286, 
    287, 
    290, 
    291, 
    292, 
    293, 
    294, 
    295, 
    296, 
    297, 
    298, 
    301, 
    302, 
    303, 
    304, 
    305, 
    306, 
    307, 
    308, 
    311, 
    312, 
    313, 
    314, 
    315, 
    316, 
    317, 
    318, 
    321, 
    322, 
    323, 
    324, 
    325, 
    326, 
    327, 
    328, 
    329, 
    332, 
    333, 
    334, 
    335, 
    336, 
    337, 
    338, 
    339, 
    342, 
    343, 
    344, 
    345, 
    346, 
    347, 
    348, 
    349, 
    352, 
    353, 
    354, 
    355, 
    356, 
    357, 
    358, 
    359, 
    360, 
    363, 
    364, 
    365, 
    366, 
    367, 
    368, 
    369, 
    370, 
    373, 
    374, 
    375, 
    376, 
    377, 
    378, 
    379, 
    380, 
    383, 
    384, 
    385, 
    386, 
    387, 
    388, 
    389, 
    390, 
    391, 
    394, 
    395, 
    396, 
    397, 
    398, 
    399, 
    400, 
    401, 
    404, 
    405, 
    406, 
    407, 
    408, 
    409, 
    410, 
    411, 
    414, 
    415, 
    416, 
    417, 
    418, 
    419, 
    420, 
    421, 
    422, 
    425, 
    426, 
    427, 
    428, 
    429, 
    430, 
    431, 
    432, 
    435, 
    436, 
    437, 
    438, 
    439, 
    440, 
    441, 
    442, 
    445, 
    446, 
    447, 
    448, 
    449, 
    450, 
    451, 
    452, 
    453, 
    454, 
    455, 
    456, 
    457, 
    458, 
    459, 
    460, 
    464, 
    465, 
    466, 
    467, 
    468, 
    469, 
    470, 
    474, 
    475, 
    476, 
    477, 
    478, 
    479, 
    480, 
    481, 
    485, 
    486, 
    487, 
    488, 
    489, 
    490, 
    491, 
    492, 
    493, 
    494, 
    495, 
    496, 
    497, 
    498, 
    499, 
    500, 
    501, 
    502, 
    503, 
    504, 
    505, 
    506, 
    507, 
    508, 
    509, 
    510, 
    511, 
    512, 
    513, 
    514, 
    515, 
    516, 
    517, 
    518, 
    522, 
    523, 
    524, 
    525, 
    526, 
    527, 
    528, 
    529, 
    530, 
    531, 
    532, 
    533, 
    534, 
    535, 
    536, 
    537, 
    538, 
    539, 
    540, 
    541, 
    542, 
    544, 
    545, 
    546, 
    547, 
    548, 
    549, 
    550, 
    551, 
    552, 
    553, 
    554, 
    555, 
    556, 
    559, 
    560, 
    561, 
    562, 
    563, 
    564, 
    565, 
    566, 
    569, 
    570, 
    571, 
    572, 
    573, 
    574, 
    575, 
    576, 
    579, 
    580, 
    581, 
    582, 
    583, 
    584, 
    585, 
    588, 
    589, 
    590, 
    591, 
    592, 
    593, 
    594, 
    595, 
    596, 
    599, 
    600, 
    601, 
    602, 
    603, 
    604, 
    605, 
    606, 
    609, 
    610, 
    611, 
    612, 
    613, 
    614, 
    615, 
    616, 
    619, 
    620, 
    621, 
    622, 
    623, 
    624, 
    625, 
    626, 
    627, 
    630, 
    631, 
    632, 
    633, 
    634, 
    635, 
    636, 
    637, 
    640, 
    641, 
    642, 
    643, 
    644, 
    645, 
    646, 
    647, 
    650, 
    651, 
    652, 
    653, 
    654, 
    655, 
    656, 
    657, 
    658, 
    659, 
    660, 
    661, 
    662, 
    663, 
    664, 
    665, 
    666, 
    667, 
    668, 
    669, 
    670, 
    671, 
    672, 
    673, 
    674, 
    675, 
    676, 
    677, 
    678, 
    679, 
    680, 
    681, 
    682, 
    683, 
    684, 
    685, 
    686, 
    687, 
    688, 
    689, 
    690, 
    691, 
    692, 
    693, 
    694, 
    695, 
    696, 
    697, 
    698, 
    699, 
    700, 
    701, 
    702, 
    703, 
    704, 
    705, 
    706, 
    707, 
    708, 
    709, 
    710, 
    711, 
    712, 
    713, 
    714, 
    715, 
    716, 
    717, 
    718, 
    719, 
    720, 
    721, 
    722, 
    723, 
    724, 
    725, 
    726, 
    727, 
    728, 
    729, 
    730, 
    731, 
    732, 
    733, 
    734, 
    735, 
    736, 
    737, 
    738, 
    739, 
    740, 
    741, 
    742, 
    743, 
    744, 
    745, 
    746, 
    747, 
    748, 
    749, 
    750, 
    751, 
    752, 
    753, 
    754, 
    755, 
    756, 
    757, 
    758, 
    759, 
    760, 
    764, 
    765, 
    766, 
    767, 
    771, 
    772, 
    773, 
    774, 
    775, 
    776, 
    777, 
    778, 
    782, 
    783, 
    784, 
    785, 
    786, 
    787, 
    788, 
    789, 
    790, 
    791, 
    792, 
    793, 
    794, 
    795, 
    796, 
    797, 
    798, 
    799, 
    800, 
    801, 
    802, 
    803, 
    804, 
    805, 
    806, 
    808, 
    809, 
    810, 
    811, 
    812, 
    813, 
    814, 
    815, 
    816, 
    817, 
    818, 
    819, 
    820, 
    821, 
    822, 
    823, 
    824, 
    825, 
    826, 
    827, 
    828, 
    829, 
    830, 
    831, 
    832, 
    835, 
    836, 
    837, 
    840, 
    841, 
    842, 
    845, 
    846, 
    849, 
    850, 
    851, 
    852, 
    855, 
    856, 
    857, 
    860, 
    861, 
    862, 
    865, 
    866, 
    867, 
    868, 
    871, 
    872, 
    873, 
    876, 
    877, 
    878, 
    881, 
    882, 
    883, 
    884, 
    885, 
    886, 
    887, 
    888, 
    889, 
    890, 
    891, 
    892, 
    893, 
    894, 
    895, 
    896, 
    897, 
    898, 
    899, 
    900, 
    901
  ], 
  "heads": [[691, 0, 0], [693, 0, 0], [696, 0, 0], [751, 0, 0]], 
  "attrs": {"mxnet_version": ["int", 10500]}
}